logs/group6.pt (torch, 761938 bytes, 8 tensors)

weight f4 [512, 42]
000000 c0 e1 a0 bd 51 a7 41 3d e4 a1 03 3d 7d f5 f1 3c
       -0.078555584 0.047278706 0.032136813 0.029536003
000010 af d7 73 3d 96 7e c0 3d 94 2d 2e be 83 0d 27 bf
       0.059531864 0.09399144 -0.17009574 -0.6525499
000020 7b c7 94 3e ee b9 aa be 5f 06 83 be ce b5 cd 3e
       0.29058442 -0.33344978 -0.25590798 0.40177768
000030 cd 44 04 3e 37 82 21 be c2 72 5f be ef 93 43 3e
       0.1291687 -0.1577233 -0.2182112 0.19099401
000040 1e cf 8a 3c e7 d5 85 be 20 d6 86 be 06 b1 a7 be
       0.016944464 -0.26139757 -0.2633524 -0.32752246
000050 2f 83 45 3e 2c e7 8a be 4d df ad 3d 35 0f 41 bd
       0.19288324 -0.27129495 0.08489857 -0.047133643
000060 70 fa 82 3e fa 65 5a 3e 1c 18 87 bd b5 35 10 3d
       0.25581694 0.21327963 -0.065963954 0.03520747
000070 6b 0b a4 be d9 b2 04 bd 5f cf e2 3c b6 14 97 3d
       -0.3203996 -0.032397125 0.027686773 0.07376997
000080 77 3a 44 bc 26 90 82 bd d3 85 ba 3d bc 79 9e bd
       -0.01197683 -0.063751504 0.09107556 -0.07738063
000090 1e c7 03 bd 46 94 84 3c 92 76 8b 3d 1c b6 f2 3c
       -0.032172315 0.016183984 0.06809725 0.029627852
0000a0 20 a0 60 3c c8 ee f6 3b 83 a3 a0 bd ac a7 ce bd
       0.013710052 0.007535789 -0.078436874 -0.100905746
0000b0 6c 3c 04 bd 0d 34 80 ba 1e 2c 21 b9 c2 f8 21 bf
       -0.032284185 -0.0009781137 -0.00015370591 -0.632702
0000c0 5d dd 4e bd 39 73 78 be 59 17 05 3e b5 51 d9 be
       -0.050504077 -0.24262704 0.12997188 -0.4244515
0000d0 56 ed 91 3e a5 f8 2a bf 6f f4 5f 3e 68 dd 44 3e
       0.28501385 -0.6678565 0.21870588 0.19225085
0000e0 b7 34 0d be c2 70 f6 bd 93 b4 9f be 6e de de be
       -0.1378964 -0.120332256 -0.31192455 -0.43529075
0000f0 b1 0b 62 be be 3b c5 be a1 a3 73 bd ff ac df bd
       -0.22074772 -0.38522142 -0.05948222 -0.10921668
000100 5c 19 25 be 87 04 15 3d 87 90 59 be 1a 6b 64 be
       -0.16122955 0.03638127 -0.21246539 -0.22306481
000110 3c 20 1b 3e 47 99 45 3e d2 b9 5a bd be 39 93 bc
       0.15149015 0.19296752 -0.05339987 -0.01797187
000120 c9 e0 8e 3d 82 47 75 bc 86 4c a8 bd 8f 03 c6 3d
       0.06976468 -0.014970662 -0.08217721 0.096686475
000130 d4 95 3c bc a3 bb 92 3d 0d f5 15 3d f0 fc aa b7
       -0.011510331 0.07164695 0.03661065 -2.0383362e-05
000140 8d 42 1b bd 17 c4 50 bd b5 5b 2c bd f1 4e 23 3d
       -0.037905265 -0.050968256 -0.042079646 0.039870206
000150 7f 5c 99 bc be 37 1d 3e 80 c0 e9 3d 47 26 e2 bd
       -0.018720863 0.15353295 0.114136696 -0.11042457
000160 f8 a1 0a 3e a0 71 2c bf c7 f7 4b bd dd 17 19 3c
       0.13538349 -0.6736088 -0.049796846 0.009344068
000170 96 2c a1 bd fb 50 3d 3d bb fa 8e 3d d0 6d bc be
       -0.07869832 0.046219807 0.06981417 -0.3680253
000180 a5 8d 72 be 54 ad 8d 3d 25 af 9d be b7 d1 ab 3e
       -0.23686846 0.06917825 -0.30797687 0.33558437
000190 bc 54 dc be e8 3a 55 3d db 35 45 be 30 2c 2b bd
       -0.43033397 0.05205813 -0.19258825 -0.041790187
0001a0 bc 95 00 3e 82 25 5b 3d ae 9a c3 bd f2 9f 57 be
       0.12557119 0.053502567 -0.09550987 -0.21057108
0001b0 a8 f5 6f bd 7a 9a b2 3e 45 0a 3e 3e 80 49 8b 3e
       -0.058583885 0.3488348 0.18558605 0.27204514
0001c0 00 ab 2d 3e c0 8b ab be 25 80 09 3d e3 e1 6a bd
       0.16959763 -0.33505058 0.033569474 -0.05734433
0001d0 cf be 37 3d a0 3b c2 3d 27 2c c1 3d 46 59 64 3e
       0.044859704 0.09484029 0.094322495 0.2229968
0001e0 f6 c8 19 bd 4f 7c 53 bd fe af 45 3d 60 6b a9 bd
       -0.037545167 -0.05163222 0.048263542 -0.08272433
0001f0 08 ba aa bb 8f 6b 81 3d 11 4c e1 3c f9 11 e7 3d
       -0.005210165 0.06319343 0.027502092 0.11282725
000200 42 51 9d bc 23 8d 9d 3c 91 3e 52 3d df e4 8e bd
       -0.019203786 0.019232338 0.0513292 -0.069772474
000210 63 49 9f be 17 8e 49 bd b3 a8 a3 3e 81 23 1b bd
       -0.31110677 -0.049207773 0.31964645 -0.037875656
000220 3f 04 63 3e fc 66 3e 3f 21 55 6e 3e ec 9a 12 3e
       0.22169589 0.7437589 0.23274662 0.1431691
000230 27 a7 61 be ab 1b be bd 75 cc 0d 3e 45 18 5b bd
       -0.2203642 -0.09282621 0.13847525 -0.053489942
000240 09 8f e0 be e0 a6 4d 3d 99 f4 3c be 34 eb 2b 3f
       -0.43859127 0.050207973 -0.18452682 0.67155766
000250 97 20 3e be 00 e3 f5 bc 9f 18 cf 3e f7 8c 62 be
       -0.1856712 -0.030015469 0.40448472 -0.22124086
000260 52 4c 42 be d9 f8 20 be 71 1c 47 3e 98 19 96 be
       -0.18974426 -0.15719928 0.19444443 -0.293164
000270 81 97 05 3d 60 b1 db 3c d7 37 d1 bd 7a c7 bf 3b
       0.03261519 0.026817977 -0.10215729 0.005852637
000280 78 5d 10 bd 41 b6 dc bd 1d 14 00 be a5 c6 85 bc
       -0.03524539 -0.1077695 -0.12507673 -0.016330073
000290 1c f8 18 3b ad fb 88 bd c8 5b d5 3b 51 18 4d 3d
       0.0023341244 -0.06688628 0.0065111853 0.050072018
0002a0 1f 92 c7 3d 02 8e 02 bd df 69 52 bd 4c 2a 85 3d
       0.09744667 -0.03187371 -0.051370498 0.06502208
0002b0 fa 00 3e bd 36 86 8b 3e 93 cf 57 bf 81 5f c7 bd
       -0.04638765 0.27250832 -0.8430111 -0.09735013
0002c0 ad bf 4d be 11 c5 63 bf ba 87 bc be a6 d7 95 be
       -0.2009265 -0.88972574 -0.368223 -0.2926609
0002d0 a4 7e 9a 3e b8 d3 fe 3d 1b 85 86 be aa 59 a8 3e
       0.30174744 0.12442726 -0.26273426 0.32880908
0002e0 cc 1b c5 3d fb 8f 08 bd 2c d2 29 be 27 36 44 be
       0.096244425 -0.033340435 -0.1658408 -0.19161282
0002f0 86 25 1e 3d ad 1d e1 3d 18 b5 f6 3d 67 b8 77 be
       0.038610004 0.10991988 0.1204626 -0.24191438
000300 53 ed 71 bd 29 71 48 be 73 06 1f 3e 52 c0 fe bd
       -0.05906422 -0.19574417 0.15529804 -0.12439026
000310 7a 60 01 be fe e4 84 3e 2b 9a a9 3d 2a 72 80 ba
       -0.12634459 0.25955957 0.08281358 -0.0009799649
000320 c0 1e 0a 3c 12 26 a0 3d c9 3b 1a 3d 71 5c 36 3d
       0.008430183 0.07819761 0.03765467 0.044521753
000330 b6 c4 96 3d 23 f6 62 3b e7 47 8e bb 42 b8 da bb
       0.073617384 0.0034631572 -0.0043420675 -0.0066747973
000340 82 91 80 3d 78 9c c2 3c 37 96 07 be 96 64 8e bd
       0.062777534 0.02375625 -0.13240896 -0.06952779
000350 44 7a dd 3d 35 07 bc ba c6 fa 55 3d 27 03 83 3e
       0.10814336 -0.001434541 0.05224111 0.25588343
000360 3e 60 e4 bd ed d3 e5 3d f6 35 97 bc c4 80 47 bf
       -0.11151169 0.11222062 -0.018458348 -0.77930856
000370 d3 45 aa be fc bb 9a be b5 69 8d bd 4f c1 a0 be
       -0.33256397 -0.30221546 -0.06904928 -0.31397483
000380 82 bc 1c 3e 15 6c e7 3d 8a 52 6d be 7c 3f 77 3e
       0.15306285 0.11299912 -0.23176017 0.24145311
000390 69 f1 f9 3d 74 93 88 bc 6d 2a 7f 3e 7b d0 5a be
       0.122042485 -0.016671874 0.24918528 -0.21368591
0003a0 6c 99 9a be 3f 5b cf 3e c5 69 89 be 79 48 be be
       -0.30195177 0.40499303 -0.26838508 -0.37164667
0003b0 35 83 8e be 9a 6a 0b 3e 67 95 8a 3e 2f eb 19 3e
       -0.27834478 0.13614884 0.2706711 0.15031122
0003c0 92 f3 f9 3c 61 36 fe bc 12 df a9 3d 01 49 cf 3c
       0.030511651 -0.03103179 0.082945004 0.025303366
0003d0 8a b6 94 3d 2e 85 98 bd ed 56 5f bc 0a 2a bf 3d
       0.07261379 -0.07447277 -0.013631565 0.0933419
0003e0 35 92 a3 bd 2b f1 d8 bd 8f 21 7b 3c 55 64 33 bd
       -0.07986871 -0.10592874 0.015327825 -0.043796856
0003f0 62 20 1a 3d eb b4 09 3d 78 6b 52 3d 27 f9 91 3d
       0.03762854 0.033619802 0.05137202 0.071276

bias f4 [512]
000000 8b 52 87 3d a9 a1 8c be cb 65 a4 bd 7f 4d 6e 3d
       0.06607541 -0.27467087 -0.08027228 0.058179375
000010 e9 d6 0e be df e1 2e 3e ca 79 0f be 9d 90 45 3e
       -0.13949169 0.1707835 -0.14011303 0.19293447
000020 0f 2b 28 bd e1 55 d1 bd 4e 3b f4 bc 0d c2 f1 3d
       -0.04105669 -0.10221458 -0.029813435 0.118045904
000030 a3 ec 8a bd f2 25 c7 3c 04 5c 82 3e f4 7b 93 be
       -0.06783416 0.024310086 0.25460827 -0.28805506
000040 25 48 e0 bd a5 07 0b 3d 05 5e b9 bd 40 06 38 3d
       -0.109512605 0.033942837 -0.09051136 0.044927835
000050 59 8c 53 bd be b5 7f 3d bc 1e 09 be d2 47 19 be
       -0.051647518 0.062429182 -0.1339063 -0.14968804
000060 12 18 5c 3e 6f d8 74 3e 90 63 84 bd cc 90 a1 bd
       0.21493557 0.23910688 -0.064643025 -0.07888946
000070 c4 c8 14 3e 29 43 77 be 76 4d 25 be e5 e0 12 3e
       0.14529711 -0.24146713 -0.1614283 0.14343603
000080 37 16 ff bd 8d a4 02 3d 47 cd 4e 3e c7 6b 08 bd
       -0.12455409 0.03189521 0.20195495 -0.03330591
000090 35 50 f3 bd 68 4b dc 3c cf 05 01 be 6d d7 1f 3e
       -0.11880533 0.026891425 -0.12599872 0.15609522
0000a0 fb 23 4c be 93 0c 2a bb 26 12 73 3e 53 14 98 3d
       -0.199356 -0.0025947436 0.23737392 0.074257515
0000b0 60 93 11 be 7a 9c ad 3d 24 82 8a bd f6 23 24 3e
       -0.14216375 0.08477111 -0.067631036 0.16029343
0000c0 a7 55 26 3b 04 ed 07 3c e3 e6 be bd 32 95 08 be
       0.0025380643 0.008296255 -0.09321382 -0.13338163
0000d0 40 0b 46 bd 70 a7 d8 3c 63 c1 aa 3d 00 fa 44 be
       -0.048350573 0.026447028 0.08337667 -0.19235992
0000e0 6a 53 47 bd 65 62 65 bc ea b6 b9 3c d1 45 67 3e
       -0.048663534 -0.01400051 0.022670228 0.22585227
0000f0 61 07 38 3e 56 62 9a 3d 3b ca 24 3c 5f eb 04 be
       0.17971565 0.07538287 0.010057981 -0.12980412
000100 2b 98 e0 bd 78 27 6a be b1 88 ba 3d 08 9b 6c 3c
       -0.10966524 -0.22866619 0.09108103 0.014441259
000110 cf e1 a7 ba 8b 62 92 3d 9d 02 5f be ae ca 22 3e
       -0.0012808385 0.07147702 -0.2177834 0.15897629
000120 72 2f 5d 3e 2c 3c 72 be 65 df 61 bd 65 15 0c be
       0.2160013 -0.23655766 -0.055144686 -0.13680036
000130 28 a5 57 3d 01 c4 ec 3d 58 f1 d4 3c 43 ea 5a bd
       0.05264774 0.11560822 0.025993988 -0.053446066
000140 8a 25 9f be e5 be 11 3e de 79 5b bd 08 7f ff 3c
       -0.31083328 0.14232977 -0.05358302 0.031188503
000150 09 1a 39 3e 66 eb ee bd c9 bf 04 be 07 5a 0a be
       0.18076338 -0.116659924 -0.12963785 -0.13510905
000160 8b 6e ae bd 6c 31 24 be e4 bf f0 bd 7c 15 a7 bc
       -0.08517178 -0.16034478 -0.1175535 -0.020395987
000170 df a1 90 3d 82 da da bc 33 b3 11 be 4d d8 f9 bd
       0.070621245 -0.02671552 -0.14228515 -0.12199459
000180 1a 51 16 be 73 29 71 3c ff 46 3f 3d 0f 10 57 3e
       -0.14679375 0.014719355 0.046698567 0.2100222
000190 ff c0 92 bd 29 d6 44 be a3 b8 a0 3d fc 4b 4f be
       -0.07165717 -0.1922232 0.07847717 -0.2024383
0001a0 3d 31 e7 3d fa 94 2b 3e ce 07 89 bd aa 81 1e be
       0.11288688 0.16756049 -0.06690942 -0.1547915
0001b0 f0 7b 9e be 19 5c 80 bd 69 bb b9 3d 3d 8d 8f bd
       -0.30953932 -0.06267566 0.09068949 -0.07009361
0001c0 8b ce e1 bc df cf 79 3e f3 f4 98 3c d5 da 30 3d
       -0.027564308 0.24395703 0.018671488 0.043177444
0001d0 77 26 8c be 86 f4 59 bd b5 3e 56 3d 9b 8f 45 be
       -0.27373096 -0.05321171 0.052305896 -0.19293062
0001e0 0e 33 48 3d 1e f9 14 bd 2f b6 69 3e 1b b3 e7 bc
       0.048876815 -0.03637039 0.22823404 -0.028283646
0001f0 c8 02 a8 3d 19 f5 f6 bd e5 a0 c6 bc 7f 1e c2 bd
       0.082036555 -0.120584674 -0.024246642 -0.09478473
000200 de 53 c0 3d 6a 0a 69 be a1 b7 a1 3d ac 67 10 be
       0.093909964 -0.22757879 0.078963526 -0.14102048
000210 bc 50 bd bd db bd 45 be 28 20 1b be a8 47 95 bd
       -0.092439145 -0.19310705 -0.15148985 -0.07289058
000220 13 22 f6 3d 59 cd 78 bc f1 b7 93 be bb 48 a1 bd
       0.12018218 -0.015185677 -0.28851274 -0.078752
000230 f6 6b 43 be c7 3e c3 bd 75 f9 28 3e af 36 38 be
       -0.19084153 -0.09533458 0.1650141 -0.1798961
000240 27 2c 21 be 14 4e 3d be 32 0c 1f bd 81 40 1f 3e
       -0.15739499 -0.18486816 -0.03882999 0.1555195
000250 10 0f 3b be c0 01 68 be 77 d7 27 be 11 5c b3 bd
       -0.18267465 -0.22656918 -0.16390787 -0.08757795
000260 18 1e a6 3e 86 a0 9a bc 4f c0 a0 3d 61 dd 48 bd
       0.32444835 -0.018875372 0.0784918 -0.04903925
000270 dd 1b 6d 3e 2b 8a 95 3d 76 2b 29 be 65 b6 57 3c
       0.2315516 0.07301744 -0.16520485 0.013166045
000280 17 43 17 3e e3 22 c1 be be d8 df bd 60 fa be bd
       0.14771686 -0.3772193 -0.10930012 -0.09325099
000290 2c d1 76 3d 5b be 12 be fe a1 73 be 8c e1 01 3e
       0.060258076 -0.14330427 -0.23792264 0.12683696
0002a0 29 e7 c4 3d c9 46 9a be 7c cc 73 3d 3a 96 21 bd
       0.09614403 -0.3013213 0.059521183 -0.039449908
0002b0 73 e8 90 be 04 21 03 be 3e dd ee 3d 92 74 d9 3c
       -0.28302345 -0.12805563 0.11663292 0.026544843
0002c0 b5 72 17 bc 7b 17 37 3e f0 1b 1f 3d a0 38 84 3e
       -0.009243657 0.17880051 0.038845003 0.2582445
0002d0 ee 13 17 bd 40 c0 03 3e 43 14 50 be bd 2f 35 3e
       -0.03688424 0.12866306 -0.20320229 0.17693992
0002e0 2b 43 46 3d bb ef e7 bc 6e d3 3d 3e 2e 53 73 be
       0.0484039 -0.028312555 0.18537685 -0.237622
0002f0 60 a3 7d be ac 02 6b be a9 d5 1d be 9d e6 2f 3e
       -0.24769354 -0.22950238 -0.15413536 0.17177816
000300 56 58 a3 3d 68 ed 0c be 04 5a ff 3d 70 cf 6b bc
       0.07975833 -0.13762438 0.12468341 -0.014392719
000310 13 a0 80 bc 58 76 b0 3d fa 06 d7 3d 64 c9 42 3e
       -0.01570133 0.08616322 0.104993775 0.19022137
000320 28 bb f1 3d 5e 92 25 bd 1e 6b 57 3e a8 4e 32 3d
       0.11803275 -0.04042279 0.21036956 0.043532044
000330 2a ef 91 be bc b5 75 3e 2f 83 0a 3e 6f 46 8b 3e
       -0.2850278 0.23995107 0.13526605 0.27202174
000340 c5 dd 0e 3e e2 2e 92 3d 91 b1 15 3c 73 2c e4 bc
       0.13951786 0.071378484 0.009136573 -0.027853226
000350 9d d9 28 be ae ae f5 3c e7 71 80 3e dc 99 53 3e
       -0.16489263 0.02999052 0.250869 0.20664161
000360 37 cd 6d be bb d7 d1 3d 4d 16 27 bd 4a d0 a3 3d
       -0.23222815 0.102462254 -0.040792752 0.07998712
000370 bc bc 2f 3e 57 86 15 3e 84 2b 36 be 7e dd 06 be
       0.1716184 0.14602028 -0.17790037 -0.1317043
000380 72 5c f2 bd a5 9d 7a 3c 8f ee e6 3c c8 79 c0 bd
       -0.11834039 0.015296374 0.028189925 -0.09398228
000390 84 22 68 3e c7 d8 16 3e 10 f4 d1 3d 6a 6f c2 bd
       0.22669417 0.14731131 0.10251629 -0.09493907
0003a0 98 10 86 be 43 7a 19 be 04 7c 60 bc 7e 5e ee 3d
       -0.26184535 -0.14988045 -0.013701443 0.11639117
0003b0 43 b7 33 bd 5e 98 22 be 02 84 9c 3d c7 a3 6f bc
       -0.043875944 -0.15878436 0.07642366 -0.01462645
0003c0 11 8f 6f 3d e3 16 1c 3e 38 5d 90 3e c7 bd 8b 3d
       0.058486048 0.15243106 0.2819612 0.068233065
0003d0 62 46 2a bb 9e 1d 98 3d d0 b6 e3 bd 6c 9a 1f 3e
       -0.0025981893 0.07427524 -0.11118853 0.15586251
0003e0 4e 28 ef bd 8c 3d 9a 3d cb b3 ee bd e6 24 cd bd
       -0.116776094 0.075312704 -0.116553865 -0.100168034
0003f0 ab 24 02 3d a7 59 77 be e3 7b 1a be 74 a8 80 bc
       0.03177325 -0.24155293 -0.15086322 -0.015705325

weight f4 [256, 512]
000000 7e a4 87 bd 25 bb 90 3d 28 10 63 3c 38 e7 29 be
       -0.06623171 0.07066945 0.013858832 -0.16592109
000010 1d ae 8a 3d 03 18 82 3c 33 d2 e5 3d ac a1 23 3c
       0.06771491 0.01588059 0.11221733 0.009987276
000020 15 62 49 be 09 bd 34 bd 52 fd b0 bd 64 57 a1 bd
       -0.19666322 -0.04412559 -0.08642067 -0.078779966
000030 85 ae e3 bc 97 22 a4 3d 6d f8 2e bd 78 d7 a7 3d
       -0.027793178 0.0801441 -0.042717386 0.08195394
000040 6f 1f a3 bc 9e 62 b3 bd fe 47 33 3c 89 c3 84 bd
       -0.01991245 -0.08759044 0.010942457 -0.06482608
000050 58 39 f4 3d 58 59 10 be d2 68 1f bd d6 df e6 bd
       0.11925 -0.14096582 -0.038918324 -0.11273162
000060 c8 1e 7f bc 55 bd c4 bc 88 aa a4 3d 77 0a 12 3e
       -0.015571304 -0.024016062 0.08040339 0.14261805
000070 b5 d7 a3 bd 3f f7 22 3e e8 1d d7 bc 0d df 2b 3d
       -0.08000127 0.1591463 -0.026259378 0.041960765
000080 d4 0a 04 3d 3c 9a 24 be ba 6c f0 bd 1d df 22 be
       0.03223689 -0.1607446 -0.11739488 -0.15905423
000090 5b f0 1b bd 76 bd 03 be 7e f8 49 bd a6 9a 00 be
       -0.038071018 -0.12865242 -0.049309246 -0.12558994
0000a0 93 25 85 3d 27 a4 c9 bc fa f9 01 be cd 34 18 bc
       0.06501307 -0.024614407 -0.12693015 -0.009289932
0000b0 30 ce 14 be 92 61 af 3d e9 af 9f bd 28 99 a4 bd
       -0.1453178 0.08563532 -0.07797224 -0.08037025
0000c0 d3 4c b0 bd 57 69 7b 3d a5 6b 2f 3b be 75 ed 3c
       -0.08608403 0.061379757 0.0026767042 0.028986808
0000d0 a3 7c 5e bd bf 4a 01 3d 29 d0 0b 3d 9d aa c8 bd
       -0.05431808 0.031565424 0.034134064 -0.09798167
0000e0 d6 ee f4 3c 13 64 63 bc f2 7e 5e 3d 56 d0 0e be
       0.029899042 -0.01387884 0.054320283 -0.13946661
0000f0 39 57 8e 3d a3 09 26 be 95 e1 d1 bd 7e 21 06 3e
       0.0695023 -0.16214614 -0.102481045 0.13098714
000100 b4 6e a6 3c de b5 6c 3e b4 ac c3 bc 0a f0 8f 3a
       0.02031646 0.23116252 -0.023886062 0.0010981571
000110 6c 02 85 3e 0e 03 dc 3c 9b 53 8e 3a 91 cd 9c bd
       0.2597841 0.026856925 0.0010858657 -0.07656396
000120 16 62 16 3d 12 12 00 3e 8c aa 8b bc 1e a7 e3 3d
       0.036714636 0.12506893 -0.017049097 0.111158594
000130 50 c3 77 bd 21 64 2b bc d4 86 cc bc 87 67 09 bc
       -0.060489 -0.010460884 -0.024966635 -0.008386499
000140 bb 11 89 3b be b8 00 3d ea a0 1f 3e 08 56 ac bd
       0.004183022 0.031426184 0.15588728 -0.08414847
000150 00 71 26 3d a8 ae dd 3d 2d 08 04 be ff e8 70 bc
       0.04063511 0.10824329 -0.12893744 -0.014703988
000160 2b 43 e3 3d 21 54 e0 3d b6 30 54 3d 25 d7 4f bd
       0.11096796 0.10953546 0.051804267 -0.050742287
000170 f1 75 78 bd 05 63 ee bd c1 98 4c be e8 87 2f 3d
       -0.060659353 -0.1163998 -0.19980146 0.04285422
000180 15 77 90 3d 26 3c 12 bd e2 58 bb bd 9c f5 3b 3d
       0.07053963 -0.035701893 -0.091478124 0.04588853
000190 dc c4 96 be 39 e3 ee 3c e1 da 8f bd c4 43 42 bd
       -0.29447067 0.029161083 -0.0702417 -0.047427908
0001a0 1b 7b 86 bc 0c d6 65 3c 79 9c f8 bb b1 59 fe 3d
       -0.016416123 0.0140280835 -0.0075870124 0.12419451
0001b0 b6 fb 5a bb ef 0b 1a 3e d1 97 b9 bd d8 28 a0 bd
       -0.0033414192 0.15043615 -0.0906216 -0.0782029
0001c0 26 d7 1f bd 15 f2 0b 3d 35 b7 40 bd 11 8c 0a 3e
       -0.03902354 0.034166414 -0.04704972 0.13529994
0001d0 a4 65 f2 3d 43 72 e2 3d c4 8a 39 3d da f9 42 bc
       0.11835793 0.1105695 0.045298353 -0.01190039
0001e0 a6 e2 28 bd 4f 43 cc 3c 16 ae 8b bd ae 28 f7 bc
       -0.041231774 0.024934439 -0.06820314 -0.030170765
0001f0 ab 2b 01 be e4 59 2d 3d 92 2c 18 3d 78 16 8e 3e
       -0.12614314 0.042322055 0.03715188 0.27751517
000200 4e 59 ed bd 30 af 06 bd 0b 02 4e be fc 66 4e 3d
       -0.11589299 -0.032881916 -0.20117967 0.050391182
000210 50 d1 d8 bd 21 a2 99 bd c7 df 76 bd 41 e8 e3 bd
       -0.10586798 -0.07501627 -0.060272004 -0.11128283
000220 c3 1a 08 bd 2d 8f 82 3d 19 f3 c2 bd 67 50 0d bd
       -0.033228647 0.06374965 -0.095190234 -0.034500506
000230 13 3a fa 3d 40 f5 ee 3d aa 70 24 bd 3b 14 23 be
       0.12218108 0.116678715 -0.040146507 -0.15925686
000240 b1 cb a7 bd 9a 98 00 be f8 f5 ad bd 62 0e 1a be
       -0.08193148 -0.12558213 -0.084941804 -0.15044549
000250 66 3e a5 3c 3c d8 d6 3c 4f b7 0a 3d 2a 37 bb bd
       0.020171355 0.026226155 0.033866223 -0.09141381
000260 a4 4a 31 be 4c 8e 59 bd be 3b 8f bc fb 24 87 3d
       -0.1731363 -0.05311422 -0.017484542 0.0659885
000270 11 dc 24 bc 73 a2 8a bd b8 87 55 bc 79 f5 a7 3c
       -0.010062234 -0.06769266 -0.013032846 0.020502793
000280 3f 56 3b be af ef 4e 3c 03 8c 4c 3d 9f e4 e6 3d
       -0.18294619 0.012630387 0.049938213 0.11274075
000290 96 fd cd bd a1 7f ed bd 22 e1 b9 bd ca a5 04 3d
       -0.10058133 -0.11596609 -0.09076144 0.03238467
0002a0 fe ce 83 bd 2b bf d1 bd 56 e7 98 bd ca d8 2d 3c
       -0.06435965 -0.102415405 -0.07465999 0.010610769
0002b0 b2 5c fe 3c 45 ad fe bd 29 9a e4 bc f7 9f 11 be
       0.03105006 -0.12435392 -0.02790554 -0.14221178
0002c0 3b 8b 39 3e 76 e7 9f bd a2 2f 82 3d 19 63 9b bd
       0.18119518 -0.078078195 0.063567415 -0.07587261
0002d0 d1 55 4e bd cf 37 bc bd 81 de 7a bd 00 c0 17 3d
       -0.05037481 -0.09190332 -0.061247353 0.03704834
0002e0 2b 21 69 bd a0 ab a6 bc a0 e8 3e bd 31 c5 f2 3c
       -0.056916397 -0.020345509 -0.046608567 0.029635044
0002f0 73 3d 17 3e 1f d4 be 3d 79 10 8d 3a d6 65 23 bc
       0.14769535 0.09317803 0.0010762356 -0.00997301
000300 17 40 bf bb 69 72 12 3c 29 5c b2 bd ea e7 1d 3d
       -0.0058364975 0.00893841 -0.087089844 0.03855125
000310 5c 34 da bd 31 f2 a3 3d 7a bb f3 3c e4 e9 3b be
       -0.10654518 0.08005179 0.029752482 -0.18350941
000320 f0 22 d2 bd 46 17 8c 3c cf e1 cf 3d 09 aa 4e bd
       -0.1026057 0.017100941 0.101504914 -0.050455127
000330 8a 19 ff 3d 19 1c 07 be 4e ad b6 bc b6 ae 29 be
       0.12456043 -0.13194312 -0.022299435 -0.16570553
000340 22 60 9a 3d b0 29 0d bb c9 fb bd 3d c0 68 14 3d
       0.07537867 -0.002153974 0.0927654 0.03623271
000350 22 5d 8a bd e2 53 09 3d a4 74 3a 3e 6e 16 35 be
       -0.06756045 0.033527263 0.18208557 -0.17684337
000360 26 10 71 bd 0b 5b 8f bd 06 96 e3 bd 52 5a 20 bd
       -0.05885329 -0.06999787 -0.11112599 -0.039148636
000370 e7 7e 8a 3c cf 01 7f 3d a0 55 74 bd bf 24 5a 3c
       0.016906215 0.062257584 -0.05965197 0.013314425
000380 68 cb 06 be b8 cb db bd 3e 15 a2 3c 04 15 6a bc
       -0.13163531 -0.10732216 0.01978552 -0.014287237
000390 9d 4f 44 3d f2 39 3b 3b 33 b2 2b 3d 1c 9f 24 be
       0.047927488 0.0028568474 0.04191799 -0.1607632
0003a0 ed 70 d3 3d a0 fd ac 3d aa f8 04 3e f0 ce 97 3d
       0.10324273 0.08446813 0.12985483 0.07412517
0003b0 16 af 93 3e c4 26 d1 bd 14 a3 ae bc 68 d4 c0 3d
       0.28844517 -0.10212472 -0.021317996 0.09415513
0003c0 98 7f ea bc 9f 20 ec bd c9 2e 2d be ee 29 ce bc
       -0.028625295 -0.115296595 -0.16912378 -0.025166478
0003d0 8f 11 9c bd 2b 87 98 bd 30 a5 8a 3c 54 f3 b9 3d
       -0.076205365 -0.07447656 0.01692447 0.09079614
0003e0 46 58 e5 bd a9 36 f2 3c ec 9e 8e 3c e0 2a 30 bd
       -0.111984774 0.02956708 0.017409764 -0.04300964
0003f0 21 2b ce bb 41 5e 62 3e 2d 74 48 be 30 88 0d be
       -0.0062917625 0.22106268 -0.19575568 -0.13821483

bias f4 [256]
000000 0e 33 a9 3c bb 69 7f bc 5e f9 b7 bd 4b 57 b8 bd
       0.020654228 -0.015589173 -0.0898311 -0.09001025
000010 9e e1 7e bd 49 b7 92 bd ea a5 d0 bc e4 80 4b bd
       -0.062226884 -0.07163865 -0.025469739 -0.049683467
000020 8f db f7 bd f6 50 0d bd fd 82 f6 bd f2 30 3a bd
       -0.12102424 -0.03450104 -0.12036703 -0.045456834
000030 67 95 45 bd 5e af a4 bd d4 57 8a 3c 25 29 32 3c
       -0.048238184 -0.08041261 0.016887583 0.010874067
000040 d0 58 b1 bc 60 f0 ac 3b 37 6d 24 be c9 67 fd bd
       -0.021648794 0.0052776784 -0.16057287 -0.12373311
000050 11 13 34 bd e5 72 01 be ed f9 3d bd 8f 78 5c bd
       -0.043963496 -0.12641485 -0.046380926 -0.05382591
000060 e4 68 a7 bd 53 2a ac bd 72 a0 8c be 66 01 d0 bd
       -0.08174303 -0.0840651 -0.2746616 -0.10156517
000070 a4 c6 06 bc 12 b2 e9 bd fa 28 de bd d8 e6 22 be
       -0.008226071 -0.11410917 -0.108476594 -0.15908372
000080 0b 82 15 be 47 05 6e bd 8d 25 14 be 09 54 10 be
       -0.14600389 -0.0581105 -0.1446745 -0.14094557
000090 f7 df 42 bc 73 89 4a bd f9 ce 85 be a3 86 09 be
       -0.011894218 -0.049447488 -0.2613447 -0.13430266
0000a0 cc 0f 4c bd 0d 7b 79 be 33 cb 70 bd 6f 21 8a bd
       -0.049819753 -0.24363346 -0.058787536 -0.06744658
0000b0 e9 19 01 be 71 86 32 bd d3 d9 ea bd 10 e2 9c bd
       -0.1260754 -0.043585245 -0.11467328 -0.076603055
0000c0 91 e1 27 be e3 0d 4c be 90 91 45 be 6b c4 c8 bb
       -0.1639464 -0.19927172 -0.19293809 -0.0061269305
0000d0 2b 70 ad bd bb d7 48 be 4b 5a da bd 32 69 66 3d
       -0.0846866 -0.19613545 -0.10661753 0.056252666
0000e0 34 6c 0d be 80 9a 86 bd 78 e3 4b be 1b 14 7e 3d
       -0.13810807 -0.06572437 -0.19910991 0.062030893
0000f0 4a 63 12 be d2 a5 c1 3c 7a 47 ac 3c f4 c8 2d bc
       -0.14295688 0.02363864 0.021030176 -0.010606993
000100 bf f4 46 be d2 a7 d0 bd 43 c3 91 bd c6 79 ee bd
       -0.194293 -0.10188259 -0.07117321 -0.1164432
000110 33 5f eb bd 61 8d 07 be 93 d3 2b be 0e 4a 98 bd
       -0.11492767 -0.13237526 -0.16779928 -0.07436
000120 0e 37 40 be 36 06 50 bd 85 98 c5 3c 5a c0 f6 bd
       -0.18771002 -0.050787173 0.024120579 -0.12048407
000130 0f 6b a8 bc c4 98 cc bd cc 40 8e bd 55 37 23 be
       -0.020558862 -0.09990075 -0.06945953 -0.15939076
000140 b1 2c 2d be 44 e5 31 be b5 2a cb bd ec e1 a2 bd
       -0.1691158 -0.17372614 -0.09920255 -0.079532474
000150 5b e2 0f be bf 34 f9 bd 25 17 ff bd 70 ce 22 3a
       -0.14051192 -0.12168264 -0.12455586 0.0006210571
000160 ec 6e e3 bd e1 3b b9 bd 59 ab 03 be 59 f7 a8 bd
       -0.11105141 -0.09044624 -0.12858333 -0.08250303
000170 70 0a c7 bd 8b d1 ff bc 03 78 89 bd 5e 4f e1 3b
       -0.09718788 -0.031227848 -0.067123435 0.0068759164
000180 1c 99 de bd e7 fd 6c bd 2f 04 97 bd 22 e4 b3 3b
       -0.10869047 -0.057859328 -0.07373845 0.005489842
000190 41 44 0f bd be 64 9a bd 8d 8a 96 bd 5f d9 bd bd
       -0.0349772 -0.07538746 -0.07350645 -0.09269976
0001a0 d8 19 e4 bd 6a b7 f0 bd 03 d6 30 bd cd 46 b8 bd
       -0.11137742 -0.117537335 -0.043172847 -0.08997879
0001b0 dd 1c f9 bd 5d 8f 3f bd 72 c2 2b bd 06 54 b9 bd
       -0.12163708 -0.04676758 -0.041933484 -0.09049229
0001c0 40 2d 45 be b6 31 c5 bd 47 2a 2f bd 3c 27 05 3c
       -0.19255543 -0.09628622 -0.04276493 0.00812703
0001d0 b1 31 3f be 89 a9 43 bd 99 4d 93 be 06 4d aa bc
       -0.186713 -0.047769103 -0.2877014 -0.02078868
0001e0 40 89 77 bd f3 59 5d bd 2c 86 48 bd 2d 2f 59 bd
       -0.060433626 -0.05404086 -0.04895608 -0.053023506
0001f0 41 d3 90 bd f8 bb 1f bd b6 3a af bd 92 a0 92 bd
       -0.070715435 -0.03899762 -0.0855612 -0.071595326
000200 35 66 20 be 40 c8 f1 3c b0 50 cc bd f4 ac 37 bd
       -0.15663989 0.029514432 -0.099763274 -0.044842675
000210 b6 93 7b be 0c e1 57 bd 5e 88 da bd e6 a6 ef 3b
       -0.24568066 -0.052704856 -0.10670541 0.007313597
000220 99 0a 19 be c5 50 07 bd c2 be e4 bd f0 7d 16 be
       -0.14945449 -0.033036012 -0.11169197 -0.14696479
000230 fe a8 99 bd 0c 80 b0 bd 02 95 ee bd bd b6 fe bc
       -0.07502936 -0.08618173 -0.11649515 -0.031092996
000240 55 9d e2 bd 00 7e a3 be 2c f7 ae bd 95 12 b9 bc
       -0.11065165 -0.31932068 -0.08543238 -0.022591868
000250 40 15 0c be 08 8e e2 bd 85 fc aa bd c4 4d e1 bb
       -0.13679981 -0.110622466 -0.083489455 -0.0068757255
000260 6d 98 98 bd 5c 10 69 bd 8d d9 7d bd 80 6b 1a be
       -0.07450948 -0.056900367 -0.06197505 -0.1508007
000270 7b f4 02 be af 51 10 be e1 10 c3 bd de 60 a0 3c
       -0.12788574 -0.1409366 -0.09524704 0.01957744
000280 d4 a6 02 bd 32 b8 cc bd 0b 38 00 3b 8f da 36 be
       -0.03189738 -0.0999607 0.0019564654 -0.17856811
000290 c4 42 ed bd 47 71 23 be 17 23 12 bd 0f 91 61 bd
       -0.11585 -0.1596118 -0.035677996 -0.05506998
0002a0 08 1b 88 bd 7c 07 d5 bd 3e 22 90 bd 7e c2 3b bd
       -0.06645781 -0.10401818 -0.07037781 -0.04583978
0002b0 22 fe 07 be c5 f5 9b be ba cc 2e be f4 af f0 bc
       -0.13280538 -0.30460945 -0.17070284 -0.029380776
0002c0 63 a1 14 be 80 e2 c6 bd 1a ee ee bd 69 10 c6 bb
       -0.14514689 -0.0971117 -0.11666508 -0.0060444367
0002d0 c3 bb 1f 3a c3 9e ac bd f2 e3 24 bd db 26 3d bd
       0.00060933473 -0.08428719 -0.040256448 -0.046179634
0002e0 04 c3 41 bc a5 b6 94 bd 35 87 82 be ed b3 5d be
       -0.0118262805 -0.07261399 -0.2549378 -0.21650667
0002f0 de 36 15 be f9 23 7f bd ae c6 09 3d b7 c6 e6 bd
       -0.14571711 -0.062290166 0.03363674 -0.112683706
000300 38 75 b7 bd dc 11 d0 bd ee f8 59 bd 10 8a 0a bc
       -0.089579046 -0.101596564 -0.053215913 -0.008455768
000310 b3 8e 83 bd e7 69 69 bd e0 38 18 be d6 3b 97 bd
       -0.06423702 -0.056985762 -0.14865446 -0.0738446
000320 30 30 2b be 08 c3 93 bd 37 dd 28 be 8e 73 b3 bd
       -0.16717601 -0.07214934 -0.16490637 -0.08762275
000330 91 06 85 bd a0 c2 05 be e1 67 c2 bc 98 87 2c bd
       -0.06495393 -0.13062525 -0.023731174 -0.0421215
000340 04 be ba bd 5b 76 fc bd 91 b5 0d be 50 c2 17 be
       -0.09118274 -0.12327262 -0.13838793 -0.14820218
000350 1b 8f ea bd 6d 64 19 be 3b d0 65 bd 38 29 3c be
       -0.114530765 -0.14979716 -0.056106787 -0.18375099
000360 8b 2c 12 be 36 0a 90 bd f6 7d 95 bd bd 53 39 bd
       -0.14274804 -0.070331976 -0.07299416 -0.045245875
000370 ac 78 da bd 25 da 7f be 5f 84 b9 bd ae 1a c2 bd
       -0.106675476 -0.2498556 -0.09058451 -0.09477745
000380 f1 f1 28 be 44 84 94 3a 7a ab bc bd fe 7f f4 bd
       -0.16498543 0.0011330922 -0.09212394 -0.11938475
000390 4c 7d 0b be b0 b9 38 be e1 fc 52 bb f6 88 7f be
       -0.13622016 -0.18039584 -0.0032194185 -0.2495459
0003a0 fa 3d 0e be 73 e4 f1 bd c0 a7 11 be fc ee 3e bd
       -0.1389083 -0.11811151 -0.14224148 -0.046614632
0003b0 d4 a3 b2 bd 91 ae e7 bc 82 76 d3 bd a7 ca 27 bd
       -0.08722654 -0.028281482 -0.10325338 -0.04096475
0003c0 7b 2e b2 bd 6a 37 b7 bd 83 1e f1 bd 79 d9 49 be
       -0.08700272 -0.08946116 -0.11773398 -0.19711865
0003d0 be 3e 8d bd b2 6b 98 bd 4a 01 5a bd d1 e4 0d bd
       -0.06896733 -0.07442416 -0.053223886 -0.034642044
0003e0 b3 a7 9e 3c f3 a0 a8 bd 81 3d b7 bd a9 73 6f bd
       0.019367075 -0.082338236 -0.08947278 -0.05845991
0003f0 e8 68 13 be f6 40 a0 bd ce 86 be bd 23 9d 14 bd
       -0.14395487 -0.0782489 -0.09303056 -0.03628267

weight f4 [128, 256]
000000 3c 60 b3 3c 6f fe 4d 3d 2c db 01 bd c3 6d 89 3d
       0.021896474 0.050291475 -0.03170316 0.067103885
000010 c9 b3 10 3e 8c 04 b8 3d 51 b9 b7 bd 69 58 3c 3d
       0.14131083 0.08985242 -0.08970893 0.045982752
000020 54 8e 04 bd 02 ac 92 bc 32 d4 0f 3e 46 7d 97 bb
       -0.032362297 -0.017904285 0.1404579 -0.004623088
000030 c6 ed b2 bd d2 3c 99 3c 82 f8 28 3d 5c 8c 8c bd
       -0.08736758 0.01870576 0.04125262 -0.06862709
000040 e2 21 a6 bd 50 0d 83 bc fd 49 87 3d 4d a9 f8 3b
       -0.081119314 -0.015997559 0.06605909 0.0075885416
000050 e9 1e a2 3d 73 d4 cb 39 d7 38 92 3d 74 90 63 bd
       0.07916052 0.00038877464 0.071397476 -0.055557683
000060 5e fb 1b bd 6b 41 6f bc 32 11 e9 3d b4 85 83 bd
       -0.03808152 -0.014602999 0.11380233 -0.06421986
000070 47 2f 36 bd 08 cb b8 3c fd 43 8a 3d 32 75 c4 3c
       -0.04447868 0.02255775 0.06751249 0.023981664
000080 3b be 54 3d 9d 69 cb 3d d2 28 d3 3d 81 3b c5 3d
       0.05193923 0.099322535 0.1031052 0.0963049
000090 d0 4f 01 be 7c 80 3d 3d 0b 5c 07 3e 42 b8 7d 3d
       -0.12628102 0.04626511 0.13218705 0.0619433
0000a0 50 a9 80 bd 89 3a 0f be 36 55 d6 bc be 77 0c 3e
       -0.06282294 -0.13987173 -0.026163679 0.13717553
0000b0 95 f7 dc 3c ce 75 13 be 0a 21 1b bd 94 ca af ba
       0.026973525 -0.14400408 -0.037873305 -0.0013411813
0000c0 89 63 e6 bd 3b 8c 42 bc 55 85 da 3d f3 ed b6 3d
       -0.112494536 -0.011874254 0.10669962 0.08932104
0000d0 eb c1 da 3c 2d ce 31 3e ac 7f 84 bd 21 24 18 bd
       0.026703795 0.17363806 -0.06469664 -0.03714383
0000e0 f5 17 6a bd de 4c 7f bc 0d 80 8e 3d 6a 9b 22 bd
       -0.057151753 -0.015582291 0.069580175 -0.039698996
0000f0 26 eb 29 be 08 3a 6e 3b cd 83 71 bb e9 fe 33 bc
       -0.16593608 0.0036350507 -0.003685224 -0.010986068
000100 b5 ed 98 bb 13 bc 95 bd d5 cd 63 bc 6e d0 eb 3c
       -0.0046670088 -0.07311263 -0.013904055 0.02878591
000110 e3 8e 40 3e 87 ed d0 bc 80 3a a5 3d c1 f2 fa 3d
       0.18804507 -0.025503887 0.080677986 0.12253333
000120 db 49 25 3e d2 f2 73 bd 66 d1 cb bd b5 fb 80 bd
       0.16141455 -0.059557743 -0.09952049 -0.06298009
000130 9b 52 a3 3d c1 43 71 3d e5 fa 2a b6 5f 21 a8 bb
       0.0797474 0.058902506 -2.5478014e-06 -0.0051309313
000140 69 8b 8f bd 72 c0 64 bd 37 56 cb 3b 3e a4 0d bd
       -0.07009012 -0.055847593 0.006205346 -0.03458046
000150 3c 1a 00 3e 2b fd 9a bc d3 46 3d be bf 45 8c bc
       0.12510008 -0.018919548 -0.18484049 -0.017123101
000160 38 71 23 3c 7b 43 2c 3d 90 25 06 be 42 20 42 3d
       0.009975724 0.042056542 -0.13100266 0.047394045
000170 0b e8 7f bd 1b 59 7a 3c 8a ac 4f 3d b1 7d a4 3d
       -0.062477153 0.015280033 0.050701655 0.08031786
000180 b2 8f 7b bd 75 67 8b 3d 7b 01 8c bd 76 7c 87 3d
       -0.061416335 0.06806842 -0.0683622 0.06615536
000190 54 8a 6b bd dd 8e f2 3c e3 9d 7e bd ce df 1d bd
       -0.057504967 0.029609138 -0.06216229 -0.038543515
0001a0 f0 67 bb bd 44 68 6b 3d e8 7f e5 bc 77 f3 d3 bd
       -0.09150684 0.057472482 -0.028015092 -0.103491716
0001b0 cf c0 ac bd 34 8a 1d 3d 28 09 4b 3d 0c b3 f7 3c
       -0.08435213 0.03846188 0.04956928 0.030236743
0001c0 07 1b ae 3d 41 88 de bc 79 f8 1b bd 35 fb 6b bc
       0.08501249 -0.02716458 -0.03807876 -0.014403154
0001d0 9f 6d 70 bd 85 69 40 3d f5 88 cb bd f5 e5 80 bd
       -0.058698293 0.04697563 -0.09938232 -0.06293861
0001e0 f2 39 13 bd e8 81 3a 3e 80 9b a2 3d f6 5e 89 bc
       -0.035943933 0.18213618 0.079398155 -0.016768914
0001f0 9d 22 f1 3c 40 3a 1c be d0 29 63 3c 64 24 14 be
       0.02943545 -0.15256596 0.013864949 -0.14467007
000200 84 1b 25 3c 27 d1 17 bd a8 3b 21 3e ba aa bd 3c
       0.010077361 -0.037064698 0.15745413 0.023152698
000210 9a 7a 6e bd 9b 57 08 bd aa 3f 78 bd b2 7d 8d 3d
       -0.05822239 -0.033286672 -0.06060759 0.0690874
000220 da 46 e1 3d ed 7a 73 bd f9 7e 91 3c 97 6c c2 bd
       0.10999842 -0.059443403 0.01776074 -0.09493368
000230 98 ee 59 be 7d e0 a9 3d 57 8f 00 bc 80 01 e2 bd
       -0.21282423 0.08294771 -0.007846675 -0.11035442
000240 33 c2 8b 3d d1 8a 99 3c 9f fa f0 3c 87 7a 45 bd
       0.0682415 0.01874295 0.02941638 -0.048212554
000250 39 52 90 bd 69 c2 0f 3d 47 83 13 3e dc ae 94 3d
       -0.07046933 0.035097513 0.14405547 0.07259914
000260 6e b3 10 3e 7d 37 9d 3d 38 60 d5 bc d4 36 bf bc
       0.14130947 0.07676599 -0.026046857 -0.023341574
000270 3c 03 b2 bd 02 00 51 3d 81 f4 6a 3b 7f 6d d2 bb
       -0.08692023 0.051025398 0.0035851302 -0.0064217444
000280 ae 44 95 3d 08 df f6 bd 8b ce 62 3d 71 5c 9b 3b
       0.0728849 -0.120542586 0.055372756 0.0047412445
000290 c9 4e 20 bd 99 a6 fe 3d 2c b2 99 3c c7 c7 12 3e
       -0.039137635 0.1243412 0.018761717 0.14334022
0002a0 3d 87 05 be 91 4d 88 bd 15 f9 99 3c 90 2f fd bc
       -0.1303987 -0.066554196 0.01879553 -0.030906469
0002b0 70 9a 95 3d 94 af 23 bd 6e fb aa bc 86 1a c0 bd
       0.07304847 -0.039962366 -0.020871844 -0.09380059
0002c0 83 1c 93 3d 12 fc ff 3d 7f 8a c7 3c 21 07 0e bb
       0.071831726 0.124992505 0.024358032 -0.002167173
0002d0 70 a8 ab 3d 93 1d ee b9 2c 8e 37 bd d6 41 ab bc
       0.08381736 -0.00045416932 -0.04481332 -0.020905416
0002e0 e3 64 f4 3c c7 65 bb bc 0c 13 8b bd 2b b6 96 bd
       0.029833263 -0.02287568 -0.06790742 -0.073589645
0002f0 3b 73 c2 3c f8 9f 95 bc 9f 04 1f 3d 8e d4 28 be
       0.023736587 -0.018264756 0.038822766 -0.16487333
000300 eb e6 5e 3d 65 4a bf bd a6 5f 89 bd 0f 6c a2 bd
       0.05441944 -0.093403615 -0.067076966 -0.07930767
000310 4d 7c ed bc 6e 2d 50 bd 8f 21 c1 bd 60 08 7d bd
       -0.028989935 -0.050824575 -0.09430229 -0.061775565
000320 9d 51 33 bd d3 bf f6 3d 4d 2b 54 3d c3 39 c0 bc
       -0.043779004 0.12048306 0.051799107 -0.023465043
000330 b5 d4 61 bd 50 c3 d7 3d fb ca 67 3d ec f8 9b bd
       -0.055134494 0.105353 0.05659006 -0.076158375
000340 64 48 28 3b ff 92 ea 3d 0c dc 5d 3d ff 23 9e 3d
       0.0025677914 0.114538185 0.05416493 0.077217095
000350 b6 8a a6 3c e5 66 b0 3d 2a 9b 43 be 16 98 e1 3c
       0.020329814 0.086133756 -0.19102159 0.02753834
000360 c4 e7 83 3d b3 24 17 bd 3a 71 48 bd da c5 bc 3d
       0.0644069 -0.036900233 -0.048936106 0.09217425
000370 b0 69 b1 bc 91 8c 53 3c 04 d6 e5 3d df 19 82 3c
       -0.021656841 0.012911932 0.11222461 0.015881477
000380 c9 d4 ad 3c 4c 49 06 3b 7d 11 a2 3d 02 bb 31 3c
       0.021219628 0.0020490466 0.07913492 0.010847809
000390 0a 19 71 b9 d5 0e fb bb a7 c3 76 3d 76 28 c2 3c
       -0.00022992879 -0.00766168 0.060245182 0.023700934
0003a0 50 fc 5d 3d 64 2f d0 3c 2d ea 60 bd fa 73 f6 bc
       0.054195702 0.025413223 -0.054910827 -0.030084599
0003b0 c5 c9 4a 3d c7 f4 92 bd 22 3f 29 bd 1e 39 88 bd
       0.04950883 -0.07175594 -0.041319974 -0.06651519
0003c0 03 eb 35 be 87 b6 24 bb fb f5 91 bd 7c ba 74 3b
       -0.17765431 -0.002513321 -0.07126995 0.0037342599
0003d0 d1 bf 39 3d 0f 61 8c bc 5e 08 ff 3c c1 7d a5 3c
       0.045348946 -0.017136125 0.03113192 0.020201566
0003e0 6d d0 96 3c 14 e8 27 3e 55 c0 d7 3d d0 73 72 3d
       0.018409932 0.16397125 0.10534731 0.05919248
0003f0 90 bc ff bd 98 c3 98 bd 5d a6 bf 3c 66 bf 00 be
       -0.12487137 -0.074591815 0.023394758 -0.12573013

bias f4 [128]
000000 2f b4 59 bd c6 a7 71 bd 61 39 99 bd ff 39 a1 3c
       -0.053150352 -0.05899789 -0.07481647 0.019680975
000010 6a ee 2d be b8 b7 ee 3c ce 02 e0 bd 05 4a 96 3c
       -0.16985479 0.029140338 -0.10938035 0.018345842
000020 76 f5 cd bd 82 a0 a9 bd 20 06 a5 bc 96 3f 1f 3c
       -0.100565836 -0.082825676 -0.020144522 0.00971975
000030 8d c6 89 bd 3c 61 69 bd cc ea 0d be 81 26 be bb
       -0.06727324 -0.056977496 -0.13859099 -0.00580293
000040 9c 73 da bd 4b 96 ec b9 d8 43 fd bd 55 67 73 be
       -0.10666582 -0.00045125405 -0.12366456 -0.23769887
000050 13 c6 23 bc ed 74 88 bd cb 63 5b be f6 9e 92 bd
       -0.009995955 -0.06662927 -0.21424787 -0.07159226
000060 1d 10 82 3c b5 80 01 bd e5 f5 c7 bc 53 18 bb 3c
       0.015876824 -0.031616885 -0.024409244 0.022838747
000070 f0 2c 38 3d 81 b7 10 be 35 52 59 be 7b 70 10 bd
       0.04496473 -0.14132501 -0.21222766 -0.03526352
000080 09 aa b5 bd 10 c4 8e bd 7c be 48 bd 1d ae 01 be
       -0.08870322 -0.0697099 -0.049009785 -0.12664075
000090 57 45 b0 bc 57 c7 d3 bd f6 fd 3c bd 42 61 09 be
       -0.021517439 -0.103407554 -0.046140634 -0.13416007
0000a0 66 25 3f bd 42 64 14 bd d3 6b c4 bc 2b 79 5b 3b
       -0.046666525 -0.036228426 -0.023977196 0.003348897
0000b0 b7 6a e0 bd 9d 5c 0c 3d 10 0e 1a 3d a6 4c d6 3c
       -0.10957854 0.03426801 0.037611067 0.026159596
0000c0 33 64 f1 bc 88 51 82 3b 9b 29 32 bd fb ac 06 bd
       -0.029466724 0.0039770044 -0.04349671 -0.03287981
0000d0 8f 17 c5 bb 43 79 72 bd d9 4e 23 be 06 2d 6f bd
       -0.0060147713 -0.059197675 -0.15948047 -0.058392547
0000e0 25 d9 62 bd 59 a2 e1 bc d8 b1 11 bd d0 18 a1 bc
       -0.055382866 -0.027543234 -0.035569996 -0.019665152
0000f0 1b 62 19 bd cc ff 0d be 46 2b 1a be 8a 77 9b bd
       -0.037447076 -0.1386711 -0.1505557 -0.0759116
000100 a7 36 37 be ab 5f d5 bd ce 08 b2 3c 0c 4d 09 be
       -0.17891942 -0.10418638 0.021732714 -0.13408297
000110 05 bd 20 bd bf fb 21 bc 0a b7 1f bd 02 a5 65 3b
       -0.039242763 -0.009886681 -0.03899292 0.003504098
000120 cb 3b dd bd 2e b0 41 be 7b a0 5a 3c f6 6c 95 bc
       -0.1080242 -0.18914863 0.013343926 -0.018240433
000130 b0 0e 84 bd 39 61 f8 bd d7 c9 57 bd 47 5c e7 bd
       -0.06448114 -0.12127919 -0.052682724 -0.112968974
000140 8a 75 83 bd 6f 66 14 bd 08 d4 02 be 45 4e d5 3c
       -0.06418903 -0.0362305 -0.12776196 0.026038298
000150 5b ab ee bd 24 b7 70 be 8f 3a 18 bc 5a ce 70 3d
       -0.11653777 -0.23507363 -0.009291305 0.058790542
000160 63 47 8a bd 02 25 e5 bc ac 95 0a bc bc 91 dd bc
       -0.06751897 -0.027971748 -0.008458536 -0.02704703
000170 97 a2 9d be f7 f0 f4 bd fe 6a 9d bd df 3e cd bc
       -0.3078811 -0.11960023 -0.07686423 -0.025054393
000180 de 87 cf bd 02 8a b7 bb 88 ca ab bd 7a 41 a4 bd
       -0.101333365 -0.0056011686 -0.08388239 -0.08020301
000190 8c 91 51 3d 30 b1 3f be fd b4 8b bd ce 81 61 bd
       0.051164195 -0.18719935 -0.0682163 -0.055055432
0001a0 ca db 2f be 6d 63 85 be d2 ab 0b be 36 de 4c bd
       -0.17173687 -0.26052418 -0.13639763 -0.050016604
0001b0 2f ca e0 bc 5d 66 a5 bc 56 1d 40 be 8e e6 cd bd
       -0.027440159 -0.020190412 -0.18761191 -0.100537404
0001c0 ca cf 31 be cd c2 f3 bc 40 85 0f be 45 d9 ba bd
       -0.17364421 -0.029755974 -0.14015675 -0.09123472
0001d0 68 62 9b bd 69 03 e7 bc 2b 93 49 bd 2f 2a 4d 3d
       -0.07587129 -0.028199868 -0.049212616 0.050089058
0001e0 99 36 8e bd b9 2e 66 bd 1b 6c 86 bd df 56 05 be
       -0.069440074 -0.056196902 -0.06563588 -0.1302142
0001f0 72 92 0e be 93 3a aa bc 5a 18 b0 bc bc e8 dd bd
       -0.13923052 -0.020779883 -0.021495987 -0.10835406

weight f4 [12, 128]
000000 15 1d 07 bc 34 43 61 3c b3 b7 1b 3d 35 9b 47 ba
       -0.00824668 0.013748933 0.038016986 -0.0007614375
000010 02 03 1f bc 8f 59 8c 3d 35 92 ab bc 19 32 f6 bb
       -0.009705307 0.068530194 -0.02094374 -0.0075132963
000020 3d da 51 bc a2 b1 3a 3d 28 1e 38 bc f9 d4 37 3d
       -0.01280838 0.04557956 -0.011237659 0.04488084
000030 fd bf 53 3b fd a5 db 3c bb e4 b3 bc fb 54 71 3c
       0.003231048 0.026812548 -0.021959653 0.014729734
000040 e0 9a f4 bc 7c 3b b5 3c 8e 4b dc 3c bd 2f 5e 3c
       -0.029859006 0.02212309 0.026891496 0.013561186
000050 89 7b 10 bc 0c be 05 3d 57 59 bd b9 6b dc 2d bd
       -0.008818516 0.032651946 -0.00036115453 -0.042446535
000060 4e e3 ef bc de 6a a2 3c 9e 29 d5 3c e1 b0 b5 3c
       -0.029283192 0.019826349 0.026020821 0.022179069
000070 8a 3b 33 3c 22 d7 00 3d dd 17 7c 3c c5 3c ea 3c
       0.010939488 0.031455167 0.015386549 0.02859343
000080 3f ab 8b 3c 17 5a 67 3c 37 8d aa bc ba c7 a4 bc
       0.01704943 0.0141206 -0.02081929 -0.020114768
000090 52 a1 b0 3b 2e 70 d0 3c db d2 fe 3c 13 40 90 3c
       0.0053903246 0.025444116 0.031106403 0.017608678
0000a0 78 48 39 bd 1c 9a 30 3c 61 8d f7 3b bb 6f c3 3c
       -0.045235127 0.01077893 0.0075546955 0.023856988
0000b0 d4 d6 04 3d 6d c6 2b 3d 21 db ad bc 0f 8b 30 bd
       0.03243144 0.04193728 -0.021222653 -0.043101367
0000c0 63 d0 6b 3c 83 a6 cf 3b 22 64 16 bd e3 2e a3 bc
       0.014392945 0.0063369884 -0.036716588 -0.019919818
0000d0 f3 d7 27 bd 12 02 9e bc 11 83 9c 3c dc c8 09 bd
       -0.04097743 -0.019288097 0.019105466 -0.03363882
0000e0 42 3a 91 bc 4c 1a 5c bd 17 1c 01 3d 7e d9 88 bc
       -0.017727975 -0.053736016 0.03152093 -0.01670527
0000f0 7a 68 de bc f1 2d ea 3a c3 34 10 3c 8c 72 99 3c
       -0.027149428 0.0017866475 0.008801642 0.018731378
000100 89 a5 82 bd 78 88 e3 bb 9e eb c0 bc ea 0a ce 3b
       -0.063792296 -0.0069437586 -0.023549851 0.006287922
000110 c3 79 7b 3b dd 40 14 bd c9 67 cc bc ab 37 94 3d
       0.0038372136 -0.03619467 -0.024951832 0.0723718
000120 57 30 4e 3c c5 b6 a0 3d cf 35 b4 3b 46 91 3e 3d
       0.012584767 0.078473605 0.0054995785 0.046525262
000130 ba 37 20 3d 72 be de bc 19 5f 5d 3c 3b 3f 8c bd
       0.039115645 -0.02719042 0.013511443 -0.06847998
000140 16 2f a2 3c af 72 04 3d e9 07 66 3c 66 cc 00 3d
       0.019797843 0.032335933 0.014039972 0.03144493
000150 ed 23 01 bd b2 42 c1 bb 7b 68 53 bd 34 59 f9 bc
       -0.031528402 -0.0058978433 -0.051613312 -0.030438043
000160 9b 1e 44 3c 80 8f 05 bd 1f 0a a5 bc d5 02 28 bd
       0.011970188 -0.032607555 -0.020146428 -0.041018326
000170 23 8c bf 3b 91 a7 7e bc d9 56 1c bb a0 e7 bb bc
       0.005845563 -0.015542881 -0.0023855476 -0.022937596
000180 f7 d0 be bc 26 c9 97 bc 09 e4 87 3d 2c dd 97 bc
       -0.023293002 -0.018528532 0.06635291 -0.01853808
000190 8c e7 8c bd 8d c2 14 3d 18 fa 7d 3d 4c 55 8b bd
       -0.068801016 0.03631835 0.062006086 -0.068033785
0001a0 24 7f 13 3d ab cd c1 3d 18 0b 46 bd 68 ab a1 bc
       0.036009923 0.09463056 -0.048350424 -0.019735053
0001b0 db 2a bf 3b 7e 50 11 3d b3 86 34 3b 59 99 8b 3b
       0.005833966 0.035477154 0.0027546107 0.004260224
0001c0 af c3 bf bc 30 9a 7a bc 4f 52 43 bd 85 4b d3 bc
       -0.023408739 -0.01529555 -0.047685917 -0.025792846
0001d0 6e 6e 91 3c 11 28 48 3d fb f4 67 3d 67 2b a2 bc
       0.017752852 0.048866335 0.056630116 -0.019796086
0001e0 43 99 90 3b 36 c8 65 3b 36 2d 1c 3d 54 4a 91 bb
       0.0044128015 0.0035061962 0.038129054 -0.0044339094
0001f0 2e cc 1a 3d 49 1a 32 bb 82 20 7d 3c 2d 6f 92 3c
       0.037792377 -0.0027176312 0.015449645 0.017875278
000200 64 f5 94 bd 5f b1 88 3c 51 df ea bb f5 f4 32 3d
       -0.07273367 0.01668614 -0.0071677347 0.04369064
000210 f6 2c 66 3c 70 18 2c bd 74 f8 2f 3d f9 8c 64 bd
       0.014048805 -0.042015493 0.042961553 -0.055798505
000220 f1 c7 84 bd 6c 86 61 3c 1b b6 c2 3d ed d8 6f 3d
       -0.06483448 0.013764959 0.0950739 0.058556486
000230 13 6f f7 bc 76 14 21 3c 71 80 8c bd 2c 81 1f bc
       -0.030204332 0.009831538 -0.06860436 -0.009735387
000240 a7 06 cc 3c 28 97 2b bc a4 3a 35 3d 2c f3 45 3d
       0.024905516 -0.01047305 0.044245377 0.04832761
000250 55 48 2b 3d 00 d8 7e bb 3f 34 62 bd da 20 6a bc
       0.041817028 -0.003888607 -0.055225607 -0.014290059
000260 f0 6d ea 3d 56 31 6c bd e5 0a bc bc 16 80 37 3c
       0.1144675 -0.057664238 -0.022954414 0.011199972
000270 75 81 b9 3c 1b 54 15 3d 79 63 3d 3d f8 44 94 bc
       0.022644738 0.036457162 0.046237443 -0.018099293
000280 af cd 11 bc 81 a3 2c bb f8 80 0e bd 33 09 1c 3d
       -0.008899136 -0.0026342573 -0.034790963 0.03809471
000290 9b 20 c1 bd 8b 03 09 ba a7 bb 89 bd 22 00 7b 3d
       -0.09430047 -0.0005226663 -0.06725245 0.061279424
0002a0 14 fe be bc 4c 89 a6 bd 46 5d 5e 3c 5a 87 42 3c
       -0.023314513 -0.08131656 0.013572043 0.011873091
0002b0 9d cc 01 bd 5d db b2 bc af 5a 6d 3d 53 ad 02 bd
       -0.031689275 -0.021833116 0.05794781 -0.031903576
0002c0 b6 31 8f bd 40 93 db 3c eb 59 49 3d f0 0c 0a 3c
       -0.069919035 0.026803613 0.049158018 0.008425936
0002d0 e3 6e 27 3c 60 1d 8a bd 4a 67 b7 3c 74 1d f3 bc
       0.010219309 -0.06743884 0.02238812 -0.02967713
0002e0 23 b8 e1 3b 11 98 3e 3d cd c4 45 bd 15 38 21 3d
       0.006888406 0.04653174 -0.048283387 0.039360125
0002f0 d8 cc 1e 3d af 64 38 bd 56 c8 12 bd dd 43 56 bd
       0.038769573 -0.045017894 -0.035835586 -0.052310813
000300 6b 0a 59 3d a8 cb f4 3c f6 80 d2 3c f1 68 80 3c
       0.05298845 0.029882267 0.025696259 0.01567504
000310 bd 9c 12 bd 9b 63 86 bb 56 42 2e bd a7 b7 cf 3c
       -0.03579401 -0.0041012294 -0.04254373 0.025356127
000320 92 d0 75 bd 0e 34 47 3c a1 cf 3c 3c 4e 4e 29 3d
       -0.06001336 0.012158407 0.011524112 0.041334443
000330 4f 96 a1 bb bc 3b 85 b9 28 83 9c bc be 0a 8f b9
       -0.0049312483 -0.00025412242 -0.019105509 -0.0002728309
000340 9d fa 2d 3d ae 98 1e bc bf 15 09 bc 1f 66 37 bd
       0.04247533 -0.009679956 -0.008367001 -0.044775125
000350 87 55 56 3d eb f8 03 3c 18 7c b8 3c fe d2 00 bd
       0.05232766 0.008054952 0.02252011 -0.031451218
000360 50 f5 48 3c b2 fd 3e 3d 88 84 31 3b d3 59 00 3d
       0.012265518 0.04662866 0.0027087051 0.031335663
000370 5d b7 ae 3d 93 eb 8c 3c da 72 54 bc 84 0d e2 3d
       0.085310675 0.017202174 -0.012966836 0.11037734
000380 30 41 09 bd 85 38 51 3d 79 5e 82 bd 9a 21 eb bb
       -0.033509433 0.05107929 -0.063656755 -0.0071756365
000390 5b 14 96 bb bb cb d7 3c a1 fd c0 bb e2 60 a0 bd
       -0.0045800633 0.026342263 -0.00588961 -0.07830979
0003a0 e8 bb 28 3d d8 65 13 bb bd 76 b7 bd ad 59 8b 3c
       0.041194826 -0.0022491124 -0.089581944 0.017010534
0003b0 16 72 c6 bc 4d e6 8c 3d 3a 7d 8e bc e8 03 ce 3c
       -0.024224322 0.06879864 -0.017393697 0.025148347
0003c0 89 46 57 3d 83 5b 11 3d e0 e3 87 3d 9a 53 e7 bc
       0.052557502 0.035487663 0.066352606 -0.028238107
0003d0 f8 4e 13 bc d8 c6 8d bc 40 b5 d8 3d fe c4 86 3a
       -0.008990996 -0.01730673 0.10581446 0.0010282097
0003e0 6c ae 29 3d fe 13 60 bd 2b 36 97 bd b5 0f 65 3c
       0.041426107 -0.054706566 -0.073833786 0.013980796
0003f0 f4 90 8d bb f1 87 a6 3d 2b 01 ea 3c 4e a6 89 bb
       -0.0043202583 0.081313975 0.02856501 -0.0042007333

bias f4 [12]
000000 55 07 53 bd 4e ee da 3c 60 c0 c6 3c c7 67 db 3d
       -0.051520664 0.02672496 0.024261653 0.10713153
000010 c4 e0 89 bd 13 db 9c bc b2 8e 31 be be cb f1 3d
       -0.06732324 -0.019147431 -0.1733959 0.11806439
000020 00 39 34 3e 40 24 88 3d e7 94 95 3d 81 33 27 3e
       0.17599869 0.06647539 0.073037915 0.16328241
