logs/policy-jitted.pt (torch, 761874 bytes, 8 tensors)

weight f4 [512, 42]
0	0x3dc2643b	0.09491774
1	0x3ba56dd6	0.005048494
2	0x3bc65bb4	0.0060534123
3	0xbe2f7428	-0.17134154
4	0x3cf9ecc2	0.030508403
5	0x3e89fa47	0.2694876
6	0x3e21b01e	0.1578984
7	0xbebf11d0	-0.37318277
8	0xbc6b3359	-0.014355504
9	0x3db664fc	0.0890598
10	0xbbbc279a	-0.0057420256
11	0x3efca89f	0.49347398
12	0x3dd0bff5	0.10192863
13	0xbe6a090c	-0.22855014
14	0xbe1f5101	-0.15558244
15	0xbe0ac0f7	-0.13550173
16	0xbe11bce0	-0.14232206
17	0xbeab11d6	-0.33412045
18	0xbe147097	-0.14496075
19	0xbd866aaf	-0.06563317
20	0x3e87832a	0.26467258
21	0x3e7ed480	0.2488575
22	0x3cccd71f	0.025004921
23	0xbd11680e	-0.035499625
24	0x3dc96158	0.0983302
25	0xbea76e80	-0.32701492
26	0x3e9a1751	0.30095914
27	0xbe2e5721	-0.17025425
28	0x3d2cfe0d	0.04223447
29	0xbd321249	-0.04347447
30	0x3cf9997d	0.030468697
31	0xbc8e2ebf	-0.017356275
32	0xbdb0bd13	-0.08629813
33	0x3de30c29	0.11086304
34	0x3dbc3e41	0.091915615
35	0x3d1230ff	0.035691258
36	0x3e011959	0.12607326
37	0x3db7e6cf	0.0897957
38	0xbc672f07	-0.014110333
39	0x3de2cb6b	0.11073955
40	0xbc26b390	-0.010174647
41	0xbc0b9e0d	-0.008521569
42	0x3d4da082	0.0502019
43	0x3e43c9d1	0.19119956
44	0x3e1504a1	0.14552547
45	0x3e3627b4	0.17788583
46	0x3ca69295	0.020333568
47	0xbe5a2606	-0.21303567
48	0xbd811a6c	-0.06303868
49	0xbcb29e86	-0.021804105
50	0xbec8b71d	-0.39202204
51	0x3eae100f	0.33996627
52	0x3e8791a1	0.26478294
53	0x3ee2401f	0.44189546
54	0x3cda6aae	0.026662197
55	0x3e823826	0.25433463
56	0xbdd9307e	-0.10604952
57	0xbeb6de2e	-0.35716385
58	0x3de23ac1	0.11046363
59	0x3cfdf26d	0.030999387
60	0xbe763ec1	-0.24047376
61	0xbf0449f1	-0.51675326
62	0x3e3967ac	0.18105954
63	0x3e829805	0.25506607
64	0xbe42499a	-0.1897339
65	0x3e5d4eb7	0.21612059
66	0x3cad3d1c	0.021147303
67	0x3e479fe7	0.19494592
68	0xbc235797	-0.0099696135
69	0xbe2f2197	-0.17102657
70	0x3d4c26ea	0.0498418
71	0x3db7527f	0.08951282
72	0xbd89f9e0	-0.06737113
73	0xbe248b31	-0.16068722
74	0x3da8dd64	0.08245352
75	0xb837b868	-4.380234e-05
76	0xbd82ce8b	-0.06387051
77	0xbe15b831	-0.14621045
78	0x3da434f4	0.080179125
79	0xbd5a454a	-0.053288735
80	0xbd8f15e0	-0.06986594
81	0xbd6cee3b	-0.05784438
82	0x3ab0cfc0	0.0013489649
83	0xbd823601	-0.06357957
84	0x3e42e3b3	0.19032173
85	0x3d58c370	0.05292076
86	0x3e209632	0.15682295
87	0x3dadf70f	0.08494388
88	0x3d3bb291	0.04582459
89	0xbd4ceac0	-0.050028563
90	0x3d48c618	0.049017042
91	0xbca97f89	-0.020690696
92	0x3ed0a567	0.40751192
93	0xbe3ba877	-0.18325983
94	0xbf37dbb6	-0.7181963
95	0xbe8fd4fd	-0.28092185
96	0x3e89a29a	0.26881868
97	0x3d008939	0.031380866
98	0x3e4ec634	0.20192796
99	0xbc03074a	-0.007997343
100	0xbda074a2	-0.07834746
101	0x3e7b93c2	0.24568084
102	0x3e0303e3	0.12794451
103	0x3d2390f9	0.03993318
104	0xbcf0a246	-0.029374253
105	0x3e283538	0.16426551
106	0xbe46c32b	-0.19410388
107	0x3ea7a300	0.32741547
108	0xbe005a6a	-0.1253449
109	0x3d310617	0.0432187
110	0x3e4e50de	0.20148036
111	0xbccbd75e	-0.024882969
112	0xbe903d0e	-0.2817158
113	0xbe12bd5f	-0.14330052
114	0x3d6255da	0.055257656
115	0xbcaf49fe	-0.021397587
116	0xbccea9a7	-0.02522738
117	0xbb526ffb	-0.0032110203
118	0x3d8768ff	0.06611823
119	0xbcc2f2be	-0.02379739
120	0xbd87a59f	-0.066233866
121	0x3d6a8837	0.05725881
122	0xbdc6a5e3	-0.09699609
123	0x3db7d51c	0.08976194
124	0xbbf00ff7	-0.007326122
125	0xbd040c5b	-0.032238346
126	0xbdf41855	-0.119187035
127	0xbd74f089	-0.059799705
128	0x3d8057d7	0.06266754
129	0x3e366eca	0.178157
130	0xbca39224	-0.019967146
131	0x3d053f64	0.032531157
132	0xbdbee460	-0.09320903
133	0xbd1773c8	-0.036975652
134	0x3ecf3590	0.40470552
135	0x3db6aa21	0.08919168
136	0xbd70d125	-0.058793206
137	0xbe51c947	-0.20486937
138	0xbe0446a8	-0.12917578
139	0x3de3bc4b	0.111198984
140	0x3e7a185c	0.24423355
141	0xbcd6305b	-0.026146105
142	0xbca0dd27	-0.019636704
143	0x3ec50d9b	0.38486943
144	0xbd0ba2c1	-0.03409076
145	0xbed4a142	-0.4152928
146	0x3d9d1d73	0.076716326
147	0xbd57991b	-0.052636247
148	0xbee2690c	-0.4422077
149	0xbd4f78b8	-0.050652236
150	0xbc9fec8c	-0.019521974
151	0xbde1284b	-0.109940134
152	0xbc8abb3a	-0.01693498
153	0x3eb5cf24	0.35509598
154	0x3dc6f7b0	0.097152114
155	0xbb8db9ea	-0.004325141
156	0xbdeec61a	-0.116588786
157	0xbdadd87b	-0.08488556
158	0xbdc3f4f5	-0.09568206
159	0xbd775b76	-0.06038996
160	0x3d007477	0.03136107
161	0x3d2e733c	0.042590365
162	0x3cf7f3f1	0.030267688
163	0xbd704f0f	-0.058669146
164	0xbdd0e5c6	-0.10200076
165	0x3d6e98bb	0.058251124
166	0x3d1b86fc	0.037970528
167	0xbe09f32b	-0.13471667
168	0xbd2f951d	-0.042866815
169	0xbd2caf19	-0.042159174
170	0xbd39f80f	-0.045402583
171	0x3c3a9b74	0.011389602
172	0xbe0b7093	-0.13617162
173	0x3ce903af	0.02844414
174	0xbf0b5fe7	-0.5444321
175	0xbd3237c5	-0.043510217
176	0x3e92d507	0.28678152
177	0x3d4752bd	0.04866289
178	0xbc0cb08a	-0.008587012
179	0xbc6a454c	-0.014298748
180	0x3e016983	0.12637906
181	0x3e0455fa	0.12923422
182	0x3df9576a	0.12174876
183	0xbd148134	-0.03625603
184	0xbd3a3422	-0.045459874
185	0x3e771208	0.24127972
186	0x3e8ec5b1	0.27885202
187	0xbe25d0a9	-0.16192879
188	0xbd3e0ba7	-0.04639783
189	0xbeac33e4	-0.3363334
190	0x3e8f0e03	0.27940378
191	0x3e0a2620	0.13491106
192	0xbe6bfd99	-0.23045959
193	0x3e9d3e72	0.30711704
194	0x3ed5d1d0	0.41761637
195	0x3e4f5040	0.20245457
196	0xbdc94365	-0.098273076
197	0xbe2cc2ca	-0.16871181
198	0xbc95603f	-0.01823437
199	0x3d05003d	0.03247093
200	0xbd7567ed	-0.059913564
201	0x3c9edae6	0.019391488
202	0xbd3f8143	-0.046754133
203	0x3d89ac6c	0.0672234
204	0xbd5f1780	-0.05446577
205	0x3cb0a566	0.021563243
206	0x3d41b625	0.047292847
207	0x3d389991	0.045068327
208	0xbc089d5e	-0.0083383005
209	0x3cce0cd6	0.025152605
210	0x3d596aa5	0.05308022
211	0x3d892c3b	0.066978894
212	0x3ba792b7	0.0051139253
213	0xbd65fc45	-0.056148786
214	0x3cc83cf7	0.024443133
215	0x3eefdb10	0.4684682
216	0xbe20af3d	-0.15691848
217	0x3e99efdb	0.30065808
218	0xbea2c213	-0.31788692
219	0xbec692a8	-0.38783765
220	0xbeaebd19	-0.34128645
221	0x3c6c0aa6	0.014406836
222	0xbdad8ec5	-0.08474497
223	0xbd275c87	-0.040859725
224	0x3e6269e7	0.22110711
225	0x3db758e4	0.089525014
226	0x3da9dbd0	0.08293879
227	0xbd98128c	-0.074254125
228	0x3d3afbcc	0.04565029
229	0x3e08eb97	0.1337112
230	0xbda549d7	-0.080707245
231	0xbc803bb2	-0.015653465
232	0x3e15ce58	0.14629495
233	0xbe15e488	-0.14637959
234	0x3da5087a	0.080582574
235	0x3e6cf77b	0.23141281
236	0x3ebc7274	0.3680607
237	0xbdcf4b00	-0.10121727
238	0xbe14150d	-0.14461155
239	0xbeb3649f	-0.35037705
240	0x3d9ce2d4	0.076604515
241	0x3d60bfd2	0.054870434
242	0x3dcf315b	0.10116836
243	0x3d53a185	0.05166771
244	0x3c821012	0.015876804
245	0xbc98a01b	-0.018631032
246	0xbd85a605	-0.06525806
247	0xbb573013	-0.003283505
248	0xbd5e5946	-0.054284357
249	0x3b6fe302	0.0036603813
250	0x3d02ffbf	0.03198218
251	0x3cb96eff	0.022635935
252	0xbd976ddb	-0.07394
253	0x3da3cf5d	0.07998536
254	0xbcebae93	-0.028769767
255	0x3db1de85	0.0868502

bias f4 [512]
0	0xbd423d73	-0.047421884
1	0xbc66be27	-0.014083422
2	0x3d66f81c	0.05638896
3	0x3e21201c	0.15734905
4	0xbd0c4883	-0.03424884
5	0xbe2b6d5b	-0.16740935
6	0xbde7ef76	-0.113249704
7	0xbd9d219c	-0.07672426
8	0xbca0937b	-0.019601574
9	0x3df6239c	0.12018511
10	0xbe63fe2b	-0.22264926
11	0xbd856ac7	-0.06514507
12	0x3e2bcddf	0.16777752
13	0xbe900ea2	-0.28136164
14	0x3e2fbfb8	0.17162979
15	0x3de95f51	0.11395133
16	0xbd454506	-0.04816153
17	0xbc8a0762	-0.016849224
18	0x3de40cbb	0.11135241
19	0xbe118ac2	-0.14213088
20	0xbe03f012	-0.12884548
21	0xbe5dbb92	-0.21653584
22	0x3c39a899	0.011331701
23	0x3e5086b6	0.20363888
24	0xbe4755dd	-0.19466348
25	0xbe31a9ab	-0.1734988
26	0x3d8d7f11	0.069090016
27	0x3e58323b	0.21112911
28	0x3c2ed467	0.010670758
29	0x3d1137fd	0.035453785
30	0x3e0cb604	0.13741308
31	0xbe7c3ed3	-0.2463334
32	0xbbd5f9a1	-0.006530002
33	0x3e071f36	0.131955
34	0x3df6dcd1	0.12053836
35	0x3dd0d3d8	0.10196656
36	0xbdaea559	-0.08527631
37	0xbdeb43f7	-0.11487573
38	0x3e69f846	0.22848615
39	0xbe1fe9dc	-0.15616554
40	0xbddb2e76	-0.10702221
41	0xbddb17a7	-0.10697871
42	0x3e192d3d	0.14958663
43	0xbb5fc2d8	-0.0034143236
44	0x3c300835	0.010744144
45	0xbced3444	-0.028955586
46	0xbe552334	-0.2081421
47	0x3e1f6569	0.15566029
48	0x3d58d1a1	0.052934293
49	0x3d9994c1	0.07499076
50	0x3e4ccf2d	0.20000906
51	0x3d59320d	0.053026248
52	0xbdb063a9	-0.08612759
53	0xbd7050b4	-0.058670714
54	0x3bff0cb8	0.0077834986
55	0x3e359e6a	0.17736211
56	0x3dba25c2	0.09089233
57	0x3c285aa4	0.010275517
58	0x3d8fef34	0.07028046
59	0x3e33eafc	0.17570108
60	0x3d8e83be	0.069587216
61	0xbda76d2e	-0.08175121
62	0xbde71ec3	-0.11285164
63	0x3dbeec66	0.09322433
64	0x3cadbb28	0.021207407
65	0x3ccd7de9	0.025084453
66	0x3e076666	0.13222656
67	0xbe4f64bc	-0.20253271
68	0x3e3930e6	0.1808506
69	0xbe1e6f1b	-0.15472071
70	0x3e0c6f0b	0.13714235
71	0x3c339280	0.010960221
72	0xbda5d79d	-0.080977656
73	0xbe29c660	-0.1657958
74	0x3e02c1e1	0.12769271
75	0x3df3cb1c	0.119039744
76	0xbded1e91	-0.11578096
77	0xbc991da3	-0.01869089
78	0xbe1e2bfc	-0.15446466
79	0xbe190af2	-0.14945582
80	0xbe47450d	-0.19459935
81	0x3d960b23	0.07326343
82	0x3e6a8036	0.22900471
83	0xbcd5a693	-0.026080405
84	0x3e5b4014	0.21411163
85	0x3dd0e338	0.101995885
86	0xbd7b3aab	-0.061335247
87	0x3dfa77f1	0.12229908
88	0xbcbef4fc	-0.023310177
89	0x3e6d9809	0.23202528
90	0x3db2aad4	0.08723989
91	0xbdb8f30e	-0.09030734
92	0x3e2290b1	0.15875508
93	0xbcff0a24	-0.031132765
94	0x3e14004b	0.14453237
95	0xbc9edb99	-0.019391822
96	0xbe105a74	-0.14097005
97	0xbd24d8ca	-0.04024581
98	0x3cd3e0c1	0.025864007
99	0x3d43062e	0.047613315
100	0xbbdf8803	-0.006821634
101	0xbdf76492	-0.12079729
102	0x3e2ebef2	0.17065027
103	0x3dd90b5b	0.10597869
104	0x3e7b3c38	0.2453469
105	0x3c5df1f7	0.013546458
106	0x3d3398ea	0.043847002
107	0xbd72e38a	-0.05929903
108	0x3dc22e11	0.09481443
109	0x3d2be432	0.04196567
110	0x3d9e97fe	0.07743834
111	0x3e41218b	0.18860452
112	0x3dd62caa	0.10457738
113	0x3bb99822	0.0056638876
114	0x3e61b0c6	0.2204009
115	0x3e4594c5	0.19295032
116	0x3e3984ec	0.18117112
117	0xbd17e59e	-0.037084214
118	0x3dc2984d	0.09501705
119	0x3e52bc16	0.20579562
120	0x3d21bd5a	0.03948722
121	0xbdb65560	-0.08903003
122	0x3c88fd59	0.016722368
123	0x3e931502	0.28726965
124	0xbe3a9643	-0.18221383
125	0x3e7b5090	0.24542451
126	0x3dfac0ea	0.12243827
127	0x3d1be45c	0.038059577
128	0x3e00c6ca	0.12575832
129	0x3dd67793	0.10472026
130	0xbe2f00bd	-0.17090125
131	0x3e29b76a	0.16573873
132	0xbe4569e8	-0.19278681
133	0xbe933500	-0.28751373
134	0xbe53936c	-0.20661706
135	0x3e68ad76	0.2272242
136	0x3e00db2b	0.12583606
137	0xbd69644e	-0.056980424
138	0xbda3f7cf	-0.0800625
139	0x3b10639d	0.002203203
140	0xbd9b1234	-0.07571831
141	0x3bed1c44	0.0072360355
142	0xbe1499ea	-0.14511839
143	0xbe021e8e	-0.12706968
144	0x3e61eb8a	0.22062507
145	0xbe559e12	-0.2086108
146	0x3e4ad506	0.19807824
147	0xbd5039c0	-0.050836325
148	0x3e37f05b	0.17962782
149	0xbc945d12	-0.018110786
150	0x3d50fc5d	0.051021922
151	0xbcf133eb	-0.029443702
152	0xbc2203cb	-0.0098886
153	0xbce993f8	-0.02851294
154	0xbe3f71fb	-0.18695824
155	0x3d999eb4	0.07500973
156	0x3e38c499	0.18043746
157	0x3da31a52	0.079640046
158	0xbd831df0	-0.064021945
159	0xbde24a5c	-0.11049339
160	0x3dcd5bea	0.10027297
161	0x3d26ccd2	0.040722676
162	0x3e3ca017	0.18420444
163	0x3c83a294	0.016068734
164	0x3d787f36	0.060668193
165	0xbdbc50c5	-0.09195093
166	0xbda12875	-0.07869045
167	0x3c567407	0.0130891865
168	0x3d717eff	0.058959004
169	0xbd9a9fd1	-0.07550014
170	0x3e40f126	0.18841991
171	0x3e37c5a7	0.17946492
172	0x3e014b94	0.12626487
173	0xbea7a640	-0.32744026
174	0x3e65468a	0.2239019
175	0x3d391cc6	0.045193456
176	0xbe5a54ba	-0.21321383
177	0xbc12934a	-0.008946249
178	0x3e1b4449	0.15162767
179	0x3cbc06f9	0.022952544
180	0xbd6233ec	-0.055225298
181	0x3e4f1693	0.20223455
182	0x3d6b8e11	0.057508532
183	0xbea2f447	-0.31826994
184	0xbe89bfed	-0.2690424
185	0xbea17e97	-0.31541893
186	0xbdc536cf	-0.096295945
187	0xbe3c50da	-0.18390217
188	0x3dbce5b2	0.092234984
189	0xbd3273d2	-0.043567486
190	0x3d8fec77	0.07027524
191	0x3d627fc6	0.055297635
192	0xbe2eee22	-0.17083028
193	0x3e235870	0.15951705
194	0x3e0c22eb	0.13685195
195	0x3e447b35	0.19187625
196	0xbd919482	-0.07108404
197	0xbe821b1b	-0.25411305
198	0x3e87ab33	0.26497802
199	0x3e066c7b	0.1312732
200	0x3e5c2ddd	0.2150187
201	0xbcdcf2e0	-0.02697128
202	0x3e030e3e	0.12798402
203	0xbe4616b2	-0.19344595
204	0x3e3e5b1c	0.18589443
205	0xbd0bff44	-0.034178987
206	0x3dc7ce0c	0.09756097
207	0x3e2e748d	0.17036648
208	0xbe08d911	-0.13364054
209	0x3da9962c	0.08280596
210	0x3dfda09b	0.12384149
211	0x3e836e1e	0.2566995
212	0xbd95600d	-0.07293711
213	0xbcc0f632	-0.023554895
214	0x3bdee763	0.006802486
215	0x3ae76810	0.0017654914
216	0x3c2ae31b	0.010430123
217	0xbda606fa	-0.081067994
218	0xbe470eb5	-0.19439204
219	0x3e38a5d4	0.18032008
220	0xbddcb82c	-0.107773155
221	0x3e297d6e	0.16551754
222	0xbc1cef34	-0.009578515
223	0x3db33e49	0.08752114
224	0xbd1ea6e1	-0.038733367
225	0x3d211ee1	0.03933609
226	0x3d25d17f	0.040482994
227	0xbe1d8110	-0.15381265
228	0xbe30392c	-0.1720931
229	0x3c83ff78	0.016113028
230	0x3d33af10	0.043868124
231	0x3ba7e5b4	0.0051238183
232	0xbe3345d7	-0.1750711
233	0x3c5e6912	0.013574855
234	0x3dd3568f	0.10319244
235	0xbd386ce6	-0.04502573
236	0xbe5a01d1	-0.21289755
237	0x3c84dfb6	0.016219955
238	0x3cc2045b	0.023683717
239	0xbe22a809	-0.15884413
240	0x3e5f7512	0.21822003
241	0x3e3f067e	0.1865482
242	0x3dfa87e9	0.12232954
243	0x3d8d4358	0.068976104
244	0xbe804749	-0.25054386
245	0xbe2634ae	-0.16231033
246	0x3d53fc8c	0.05175452
247	0x3dd379ae	0.10325943
248	0x3dfa5b9e	0.12224506
249	0x3e1e387f	0.15451239
250	0xbe6f1f39	-0.23351754
251	0x3d0bb0d1	0.034104172
252	0x3c15943a	0.009129578
253	0xbe6f2633	-0.23354416
254	0xbdd95053	-0.10611024
255	0x3e00cbbd	0.1257772

weight f4 [256, 512]
0	0xbd819da6	-0.06328897
1	0x3d4f91c3	0.05067612
2	0x3de1944c	0.110146135
3	0xbd996927	-0.07490759
4	0x3d2a72ce	0.041613393
5	0x3def81eb	0.11694702
6	0xbc2faaa7	-0.010721839
7	0x3e39763c	0.18111509
8	0xbd48cf14	-0.04902561
9	0x3cf11bee	0.029432263
10	0x3d9cc2d0	0.07654345
11	0x3d799370	0.060931623
12	0xbdd0af43	-0.101896785
13	0x3d2a3b6d	0.04156058
14	0xbca84a06	-0.02054311
15	0xbd520370	-0.05127281
16	0xbe62176d	-0.22079249
17	0x3bc998ed	0.0061522634
18	0xbe2d3539	-0.16914834
19	0x3d1b51db	0.03791986
20	0x3e0538cf	0.13009952
21	0x3e11e1f0	0.14246345
22	0x3da4e44d	0.080513574
23	0xbe094e60	-0.13408804
24	0xbe5c798f	-0.21530746
25	0xbd402711	-0.046912257
26	0x3dd0756e	0.10178648
27	0xbe1a641d	-0.15077253
28	0x3dbe3b10	0.09288609
29	0x3e0d364c	0.13790244
30	0xbd374c3f	-0.04475045
31	0x3c5caaed	0.013468486
32	0x3c7476e0	0.01492092
33	0x3b4e255f	0.003145538
34	0xbde370eb	-0.11105522
35	0xbce10a79	-0.027470814
36	0xbe486c38	-0.19572532
37	0x3c8d2eec	0.017234288
38	0x3da122f4	0.07867995
39	0x3d6856f3	0.056723546
40	0x3b72fe54	0.003707786
41	0x3e55463c	0.20827574
42	0xbe1bc8b7	-0.15213285
43	0x3e8c1190	0.2735715
44	0xbc6473d2	-0.013943629
45	0x3d8ec063	0.069702886
46	0x3e35d264	0.17756039
47	0xbc05f976	-0.008177152
48	0xbdc61b59	-0.09673185
49	0xbcb77859	-0.022396253
50	0xbdfd9fef	-0.123840205
51	0xbd66c002	-0.056335457
52	0x3d6e3354	0.05815442
53	0xbd669095	-0.056290228
54	0x3c8f9ac4	0.017529853
55	0x3e4ee10b	0.20203035
56	0x3e1bac3a	0.15202418
57	0xbe39e76d	-0.18154688
58	0xbcbfb277	-0.023400528
59	0xbdb3631e	-0.087591395
60	0xbbed5e42	-0.0072439024
61	0xbc8453fd	-0.01615333
62	0x3db7322a	0.08945115
63	0x3db42bc7	0.08797412
64	0xbcfe0512	-0.031008277
65	0x3e396aad	0.181071
66	0xbd4b408b	-0.0496221
67	0xbb39236e	-0.0028249878
68	0x3a8f90bd	0.001095317
69	0xbd906781	-0.07050992
70	0x3e27a8dc	0.16373008
71	0x3d11448a	0.035465755
72	0x3dd0c6ec	0.10194191
73	0x3c7a1354	0.015263397
74	0x3c3dedad	0.011592311
75	0xbc747842	-0.01492125
76	0xbda9cc85	-0.08290962
77	0xbe0128b0	-0.12613177
78	0xbaa1798f	-0.0012319552
79	0xbc087ae2	-0.008330079
80	0x3e8f1610	0.2794652
81	0x3e54d57e	0.20784566
82	0xbd9d70d0	-0.07687533
83	0x3d4c5711	0.04988772
84	0xbd356c66	-0.04429283
85	0xbe10fc5a	-0.14158764
86	0xbda27abe	-0.079335675
87	0xbe1946c3	-0.149684
88	0xbcf4a229	-0.02986248
89	0xbd8c1388	-0.06839663
90	0x3c8fb650	0.017542988
91	0xbd611f5b	-0.054961544
92	0x3d57b5ae	0.052663498
93	0x3d15ee12	0.036603995
94	0xbe001733	-0.1250885
95	0x3cc476b7	0.023982389
96	0x3bb65743	0.0055646016
97	0xbcc3e446	-0.02391256
98	0xbc075577	-0.0082601225
99	0x3df542c9	0.11975629
100	0x3e4a9b5d	0.19785829
101	0x3c95177a	0.018199671
102	0xbcc3aaa1	-0.023885073
103	0xbdb46bb2	-0.08809604
104	0x3b3b3bb9	0.0028569533
105	0xbd890fef	-0.06692492
106	0xbd16b1df	-0.036790725
107	0xbc637ffa	-0.013885492
108	0xbdf9bd25	-0.121942796
109	0xbc358d63	-0.0110810725
110	0xbdf82ec5	-0.121182956
111	0xbca0a37e	-0.01960921
112	0x3cbd284e	0.023090508
113	0xbb9b6c74	-0.004743153
114	0xbca84162	-0.02053899
115	0xbdf2b852	-0.118515626
116	0x3da6b290	0.08139527
117	0x3d25be36	0.040464602
118	0x3c2b9f1e	0.010474948
119	0xbd5721c5	-0.05252244
120	0x3d8c5234	0.068516165
121	0xbc36796a	-0.011137346
122	0x3dabee4e	0.083950624
123	0xbe184c17	-0.14872776
124	0x3db2a1f0	0.087222934
125	0xbd4edb17	-0.05050191
126	0xbdd5f536	-0.10447161
127	0x3e69582c	0.22787541
128	0xbc08c131	-0.008346842
129	0x3e46f306	0.19428644
130	0x3d6b20d4	0.057404354
131	0xbe0e55c8	-0.1389991
132	0xbd771f2c	-0.060332462
133	0x3db973c4	0.09055284
134	0xbd2f032c	-0.042727634
135	0xbd164b70	-0.036693037
136	0xbe2c9ee3	-0.16857485
137	0xbe2e4545	-0.17018612
138	0xbd7258d2	-0.059166737
139	0xbe36cf96	-0.17852625
140	0x3e10dfc4	0.1414786
141	0x3da8a9d0	0.08235514
142	0x3c8fdd07	0.017561449
143	0x3c041f99	0.008064174
144	0x38e37bbf	0.00010847253
145	0xbd2e1528	-0.042500645
146	0xbcd1544e	-0.025552895
147	0x3d52bc25	0.05144896
148	0xbe08e576	-0.13368782
149	0x3d976568	0.073923886
150	0xbc54f98b	-0.012998949
151	0x3cfac806	0.030612957
152	0xbd874146	-0.06604247
153	0x3da47274	0.08029643
154	0x3e0fab08	0.14030087
155	0x3de20794	0.11036602
156	0x3d92f4aa	0.07175572
157	0xbac6083a	-0.0015108653
158	0xbc6376e2	-0.013883324
159	0xbd7bb57d	-0.061452378
160	0x392176fd	0.00015398483
161	0xbd539777	-0.05165812
162	0xbd9187af	-0.07105958
163	0xbd1ab0d7	-0.037766304
164	0xbdf72d55	-0.12069193
165	0x3d332754	0.043738678
166	0xbd0ad822	-0.033897527
167	0xbe4fed08	-0.20305264
168	0xbc6072ce	-0.013699247
169	0x3e0014bc	0.1250791
170	0xbdbad4eb	-0.09122642
171	0xbe1e2ddf	-0.15447186
172	0xbeb3fc18	-0.3515327
173	0x3e0f9e3e	0.14025208
174	0xbe06be46	-0.13158521
175	0xbd12b92f	-0.035821136
176	0x3e0ad5e3	0.13558154
177	0x3cc355d1	0.023844631
178	0x3c9de26b	0.019273004
179	0x3e2a778d	0.16647168
180	0x3d7ec65a	0.06220088
181	0xbdef1348	-0.116735995
182	0xbd582234	-0.052766994
183	0x3d790d0e	0.060803466
184	0x3e14d946	0.14536008
185	0x3e2a0f4c	0.16607398
186	0xbddfb118	-0.1092245
187	0x3e77139c	0.24128574
188	0x3c51d0d7	0.012806139
189	0x3d0daf77	0.034591164
190	0xbc9986ff	-0.018741129
191	0xbd00893c	-0.031380877
192	0x3e340a12	0.17581967
193	0xbdfac89f	-0.12245297
194	0x3dab6f0e	0.083707914
195	0xbe7a51f6	-0.24445328
196	0x3dd76dc3	0.10518982
197	0xbcbcd0ae	-0.023048725
198	0xbd509f3f	-0.05093312
199	0xbcd4ce03	-0.02597714
200	0xbd18039f	-0.03711283
201	0xbd29468a	-0.041327037
202	0xbc5e7c05	-0.013579373
203	0x3da7dd69	0.081965275
204	0x3bc7c62b	0.0060966215
205	0x3d20252b	0.039097946
206	0xbab2ea5d	-0.0013650168
207	0xbe0a4613	-0.13503294
208	0xbdd47a5f	-0.10374903
209	0x3d21794d	0.039422322
210	0xbdd2798b	-0.10277089
211	0x3d74f406	0.05980303
212	0x3e9353d4	0.28774893
213	0xbd86e08d	-0.065857984
214	0x3e68f450	0.22749448
215	0xbd89ba2c	-0.067249626
216	0x3ddf8721	0.10914446
217	0xbcf674d5	-0.030085007
218	0x3cc96602	0.024584774
219	0xbd54317a	-0.051804997
220	0xbd697fc4	-0.057006612
221	0x3c98de2a	0.018660624
222	0xbce37be0	-0.02776903
223	0x3c0de393	0.008660215
224	0x3c06362f	0.008191629
225	0x3d5d6ef2	0.054060884
226	0x3d8f4b21	0.069967516
227	0xbd5f7152	-0.05455143
228	0xbe17932f	-0.1480224
229	0xbc9611f1	-0.018319102
230	0xbd7569ae	-0.059915237
231	0x3d71ef12	0.059065886
232	0xbdf4f470	-0.11960685
233	0xbd339fc8	-0.04385355
234	0xbc0b857e	-0.008515714
235	0xbd8bd871	-0.06828392
236	0x3ba8b0a7	0.0051480117
237	0x3a1aca25	0.00059047557
238	0x3e4e602c	0.20153874
239	0xbd2f9c61	-0.042873744
240	0xbdd2eac8	-0.10298687
241	0x3d9c2c5c	0.076256484
242	0xbdab7a59	-0.08372945
243	0x3d82d1e3	0.06387689
244	0x3d8a24b4	0.06745282
245	0x3d938601	0.072032936
246	0xbe7156fa	-0.23568335
247	0x3d9f19c9	0.0776859
248	0xbcac4af5	-0.021031836
249	0xbc5a1267	-0.0133100515
250	0x3d6dfe6d	0.058103967
251	0x3d933e38	0.07189602
252	0xbddaf55a	-0.10691328
253	0xbdd7bb5e	-0.10533784
254	0x3e054952	0.1301625
255	0x3d42b880	0.047539234

bias f4 [256]
0	0xbe141e6f	-0.14464734
1	0xbd3b6fc3	-0.04576088
2	0xbd5ba71e	-0.053626172
3	0xbdd72a47	-0.10506111
4	0xbd1b4876	-0.0379109
5	0xbe51ed17	-0.20500599
6	0xbdc933a5	-0.098243035
7	0xbe124890	-0.14285493
8	0xbdf16efb	-0.11788746
9	0xbd8b9913	-0.06816306
10	0xbe7ede0e	-0.24889395
11	0xbd8e11a9	-0.06936962
12	0xbc8a8031	-0.01690683
13	0x3ca7ec7b	0.020498505
14	0xbdd1b63f	-0.10239839
15	0xbcaa2cb2	-0.020773266
16	0xbdf0c109	-0.117555685
17	0xbdc8fec7	-0.0981422
18	0xbd50852d	-0.050908256
19	0xbdfb6975	-0.12275974
20	0xbcda282c	-0.026630484
21	0xbc91a559	-0.01777904
22	0xbd9075f8	-0.07053751
23	0xbda6cd80	-0.08144665
24	0xbda71046	-0.08157401
25	0x3d7a54b3	0.06111593
26	0xbd6a6734	-0.05722733
27	0xbc82b1c4	-0.015953906
28	0xbd157b0f	-0.03649431
29	0x3d6a941f	0.057270166
30	0xbdaf08a4	-0.0854657
31	0xbc1ec326	-0.009690082
32	0xbd756d64	-0.059918776
33	0xbd3ebfac	-0.04656951
34	0xbe36a7fd	-0.1783752
35	0xbd428cfe	-0.047497742
36	0xbe0cb6df	-0.13741635
37	0xbe1c2971	-0.15250184
38	0xbe4c25a0	-0.19936228
39	0xbcaa408e	-0.020782735
40	0xbd85beac	-0.065305084
41	0xbdc895c6	-0.09794192
42	0xbe593f2b	-0.21215503
43	0xbd15543b	-0.03645728
44	0xbd980e6e	-0.07424627
45	0xbdc2ca97	-0.09511297
46	0xbddf39d5	-0.108997025
47	0xbdf7d722	-0.1210158
48	0xbd912593	-0.07087245
49	0xbddec5d9	-0.1087758
50	0xbe27a764	-0.16372448
51	0xbe2f3195	-0.17108758
52	0xbd7dcb7a	-0.06196163
53	0xbd929664	-0.07157591
54	0xbe01c6c0	-0.12673473
55	0xbd0f6a34	-0.035013393
56	0xbdb27e2c	-0.087154716
57	0xbd22c693	-0.039740156
58	0xbd0f2117	-0.034943666
59	0xbdd05b05	-0.101736106
60	0x3db064e1	0.08612991
61	0xbdbceac1	-0.09224463
62	0xbd51cf82	-0.051223285
63	0xbbf7281e	-0.007542624
64	0xbdf24780	-0.11830044
65	0xbe042fc8	-0.12908852
66	0xbd0ed7bf	-0.03487372
67	0xbe5035dd	-0.20333047
68	0xbe0e9bbd	-0.13926597
69	0xbdb0eb52	-0.08638634
70	0xbdc31311	-0.09525121
71	0xbccbecb0	-0.024893135
72	0xbdc83a8a	-0.097767904
73	0xbe17dbf9	-0.14830007
74	0xbdf2ec43	-0.118614696
75	0xbc936cdc	-0.017996244
76	0xbc859152	-0.016304646
77	0xbdc30381	-0.09522153
78	0xbd044e79	-0.0323014
79	0xbe1ddb66	-0.15415725
80	0xbda6604d	-0.08123837
81	0x3d786bb7	0.0606496
82	0x3b48e3ec	0.003065343
83	0x3d4eafb7	0.050460543
84	0xbe190e8e	-0.14946958
85	0xbddb27fa	-0.10700984
86	0xbe1a4c5e	-0.15068194
87	0xbddf3b35	-0.10899965
88	0xbe33c1f4	-0.17554456
89	0x3c5e392d	0.013563436
90	0xbde5b07d	-0.11215303
91	0xbe2b565d	-0.16732164
92	0xbe06a055	-0.131471
93	0xbe1d37b6	-0.15353283
94	0xbdb7efc4	-0.089812785
95	0xbe09c980	-0.13455772
96	0x3ce35663	0.027751153
97	0xbda42370	-0.08014572
98	0xbcbc1327	-0.022958351
99	0x3d71b80b	0.059013408
100	0xbdbdacb8	-0.09261459
101	0xbcc90818	-0.024539992
102	0xbd43902c	-0.047744915
103	0xbe0352e5	-0.1282459
104	0xbe181bf2	-0.1485441
105	0xbdbde812	-0.092727795
106	0xbd5905a8	-0.05298391
107	0xbdf57a54	-0.11986223
108	0x3d5c3cf3	0.053769063
109	0x3c947914	0.01812414
110	0xbcd612c2	-0.026131991
111	0xbe09e1f2	-0.13465098
112	0xbdb8906c	-0.09011921
113	0xbe04c76c	-0.12966698
114	0xbdbe29ff	-0.09285354
115	0xbd353b9a	-0.044246294
116	0xbe1aadf9	-0.15105428
117	0xbd84938c	-0.06473455
118	0xbda1ae9a	-0.07894631
119	0xbd75b607	-0.059988048
120	0xbc010f69	-0.007877209
121	0xbdf97ef3	-0.12182417
122	0xbdc3615e	-0.09540056
123	0xbcefd1f3	-0.029274916
124	0xbdb7ec42	-0.089806095
125	0xbe0828c1	-0.13296796
126	0xbd10a28e	-0.035311274
127	0xbd883d51	-0.0665232
128	0xbda53027	-0.08065825
129	0xbce2ff79	-0.02770971
130	0xbe18488c	-0.14871424
131	0x3c94cf42	0.018165234
132	0xbd33500d	-0.043777514
133	0xbc4e14ed	-0.012578231
134	0xbde50068	-0.11181718
135	0xbd65d63e	-0.05611252
136	0xbe41c6fd	-0.18923564
137	0xbe18e8e2	-0.14932588
138	0xbda7f342	-0.082006946
139	0xbe20052e	-0.15626976
140	0xbe165752	-0.14681748
141	0xbdd93c4e	-0.10607205
142	0xbbf797f2	-0.007555955
143	0xbd2ee5d1	-0.04269964
144	0xbd2a76d3	-0.041617226
145	0xbe062c71	-0.1310289
146	0xbe6f8049	-0.2338878
147	0xbe17132a	-0.14753404
148	0xbd5db32d	-0.054125953
149	0xbcf0680b	-0.029346487
150	0xbd9927ff	-0.07478332
151	0xbe01064c	-0.12600058
152	0x3cae7998	0.021298215
153	0xbd2662b6	-0.04062148
154	0xbbad1956	-0.0052825613
155	0xbdba06cc	-0.09083328
156	0x3bfd836f	0.0077366154
157	0xbe129b61	-0.14317085
158	0x3ba20742	0.004944713
159	0xbd592a1e	-0.05301868
160	0xbce6f53b	-0.028193107
161	0xbdc0c463	-0.09412458
162	0xbe4f4482	-0.20240977
163	0xbdecc556	-0.11561076
164	0xbe04a30c	-0.12952822
165	0xbdee7a6e	-0.11644445
166	0xbd72a084	-0.05923511
167	0xbd3f1bf0	-0.046657503
168	0xbde375c0	-0.111064434
169	0x3c64eb82	0.013972165
170	0x3cf450df	0.029823719
171	0xbdb238a7	-0.08702212
172	0xbd90dc50	-0.07073271
173	0xbc70a2e2	-0.014687272
174	0xbd13ec54	-0.036114052
175	0xbe3fbcf6	-0.18724427
176	0xbde0f320	-0.109838724
177	0xbddf32b4	-0.10898343
178	0xbe1c6ffd	-0.15277095
179	0x3d2c6d20	0.042096257
180	0xbdb33385	-0.08750061
181	0xbdefc1d5	-0.117068924
182	0x3cd93742	0.026515607
183	0xbe00abf5	-0.12565596
184	0xbe165eb1	-0.1468456
185	0xbd53c5df	-0.051702376
186	0x3c026c18	0.007960342
187	0xbd193212	-0.037401266
188	0xbdab3ceb	-0.083612286
189	0x3d047c67	0.0323452
190	0x3a0fad01	0.00054807967
191	0xbdd7334c	-0.10507831
192	0xbdf562bd	-0.119817235
193	0xbe02e293	-0.12781744
194	0xbbe67a5c	-0.0070336293
195	0xbdfbe084	-0.12298682
196	0xbd979b63	-0.074026845
197	0xbe26c0ef	-0.16284536
198	0xbe0d1dd0	-0.13780904
199	0xbd8142da	-0.06311579
200	0x3cf71ced	0.03016516
201	0xbd5a4ca2	-0.05329574
202	0xbe331c1b	-0.1749119
203	0xbd193032	-0.03739948
204	0xbe3ccaff	-0.18436812
205	0xbe04c3d0	-0.12965322
206	0xbd5fa61e	-0.05460178
207	0xbe18b8ae	-0.149142
208	0xbca7b269	-0.020470815
209	0xbe1d5fe5	-0.15368612
210	0xbe28b16a	-0.16473928
211	0xbd89b5cb	-0.067241274
212	0xbd733ff3	-0.05938716
213	0x3cd6d6cf	0.026225476
214	0xbd84a023	-0.06475856
215	0xbcad4d55	-0.021155039
216	0xbda6fa1f	-0.081531756
217	0x3d626ff6	0.055282556
218	0x3c34bcbf	0.011031329
219	0xbda3ec0d	-0.080040075
220	0xbe081cd3	-0.13292246
221	0xbddfb44a	-0.10923059
222	0xbdc25370	-0.09488571
223	0xbe07e3c8	-0.13270485
224	0xbde4388e	-0.111435995
225	0xbd2362b4	-0.039889053
226	0xbd401ff7	-0.046905484
227	0xbe04549b	-0.129229
228	0xbc55a07f	-0.0130387535
229	0xbdb4f53f	-0.088358395
230	0xbd3ce918	-0.046120733
231	0xbd8fc962	-0.070208326
232	0xbd06d9b5	-0.032922465
233	0xbcd006ac	-0.025393806
234	0xbd89fde7	-0.06737881
235	0x3c861bcc	0.016370676
236	0xbd6f0945	-0.05835845
237	0xbdd54439	-0.10413403
238	0xbde0611d	-0.10956023
239	0xbdd6bf18	-0.10485667
240	0xbd3068ee	-0.04306882
241	0xbcfd9fe3	-0.030960029
242	0xbe29648e	-0.16542265
243	0xbdeb6487	-0.114937834
244	0xbda38ea0	-0.07986188
245	0xbddca789	-0.10774142
246	0xbb89b64f	-0.004202641
247	0xbdb81db0	-0.089900374
248	0xbdd1f9f7	-0.10252755
249	0xbd273050	-0.04081756
250	0xbca25ff7	-0.01982115
251	0xbd17c5f1	-0.037054006
252	0xbdae9c43	-0.08525898
253	0x3c316545	0.010827367
254	0xbd82c747	-0.063856654
255	0xbe1e64d5	-0.15468152

weight f4 [128, 256]
0	0xbb232ddb	-0.0024899158
1	0xbde63080	-0.112397194
2	0xbcdc8c30	-0.026922315
3	0x3e2a14a6	0.16609439
4	0xbde112b6	-0.10989897
5	0x3b21e4ff	0.0024703143
6	0x3d31aa3b	0.043375235
7	0x3d837c0b	0.06420144
8	0xbe25dd8c	-0.16197795
9	0xbc76f7ac	-0.015073698
10	0x3c9a8103	0.018860346
11	0x3e1c5a3a	0.15268794
12	0xbb4e3413	-0.0031464144
13	0x3d9fac7f	0.07796573
14	0xbd497fa8	-0.049194008
15	0x3d26458b	0.040593665
16	0x3d515740	0.0511086
17	0x3c51c476	0.012803188
18	0x3e1778aa	0.14792123
19	0x3cc50176	0.024048548
20	0xb9a07c4a	-0.0003061018
21	0xbd2ec30e	-0.042666487
22	0x3d8b329b	0.067967616
23	0xbd7304e4	-0.059330836
24	0x3cfd09c2	0.030888442
25	0xbd9fc6d5	-0.07801596
26	0xbd85b907	-0.06529432
27	0xbda93272	-0.08261575
28	0x3e0fd67b	0.14046662
29	0xbe1425b0	-0.14467502
30	0xbca1d916	-0.019756835
31	0x3be6ed29	0.0070473147
32	0xbaa719d3	-0.0012748785
33	0x3b9eff25	0.004852193
34	0x3e3586bb	0.17727177
35	0x3dcab45a	0.098976806
36	0xbd853388	-0.065039694
37	0x3e012bf3	0.12614422
38	0x3e0413ea	0.12898222
39	0xbdad115a	-0.08450575
40	0xbdd600dc	-0.10449383
41	0x3d476d46	0.048688196
42	0x3e43d348	0.19123566
43	0xbe3ce490	-0.18446565
44	0xbe2adfca	-0.16686931
45	0xbe145639	-0.14486016
46	0x3def7849	0.116928644
47	0xbd4d4901	-0.05011845
48	0x3d72060d	0.0590878
49	0x3dd82799	0.10554428
50	0x3d6c6022	0.057708867
51	0x3ccb8a62	0.02484626
52	0xbe4261ff	-0.18982695
53	0xbcb067dd	-0.0215339
54	0x3c845ad4	0.016156591
55	0x3bde58c8	0.006785486
56	0x3d242e0c	0.040082976
57	0x3cb11b92	0.021619592
58	0xbe02659b	-0.12734072
59	0xbe148d3d	-0.14507003
60	0xbc29c42d	-0.010361713
61	0x3d562589	0.05228189
62	0x3d91c68b	0.07117947
63	0xbe49e44f	-0.19715999
64	0x3db64b90	0.08901131
65	0x3e34c159	0.17651881
66	0xbe2fea03	-0.17179112
67	0x3c3095c6	0.010777896
68	0xbccf04ac	-0.025270782
69	0xbd991d3e	-0.07476281
70	0xbc623e72	-0.013808833
71	0xbe2b76ea	-0.16744581
72	0x3dccb868	0.0999611
73	0x3dc49366	0.095984265
74	0x3d9aa2d1	0.07550586
75	0xbdc8f1e1	-0.0981176
76	0xbe52f7ae	-0.20602295
77	0xbe0c2048	-0.1368419
78	0xbd849eef	-0.06475627
79	0xbac9f047	-0.0015406691
80	0x3e3be23b	0.18348019
81	0xbd1ab949	-0.037774358
82	0x3dcb78a6	0.09935121
83	0xbd59a9c3	-0.053140413
84	0x3e3ec83a	0.18631068
85	0xbd314e9a	-0.04328785
86	0x3db62f94	0.088957936
87	0x3deb55b4	0.11490956
88	0x3e2b245a	0.16713086
89	0x3dbbe620	0.09174752
90	0xbc1b7a1f	-0.009489565
91	0xbc7a9c03	-0.015295985
92	0x3e02db68	0.1277901
93	0x3db42ead	0.08797965
94	0x3d0709d0	0.032968342
95	0x3c651138	0.013981156
96	0xbe55b50b	-0.20869844
97	0xbd80c19d	-0.06286929
98	0x3dc958a2	0.098313585
99	0xbbf11e6e	-0.007358364
100	0x3d4ca451	0.04996139
101	0x3d989f25	0.074522294
102	0xbe2c3fe0	-0.16821241
103	0x3d1fea6b	0.039041918
104	0x3de01bdd	0.109428145
105	0x3ae30958	0.001732151
106	0x3da71b4d	0.08159504
107	0xbdbd259e	-0.092356905
108	0xbacdcd43	-0.0015701432
109	0xbc18a88f	-0.009317531
110	0xbb64ae84	-0.0034894058
111	0x3c97ad4d	0.018515253
112	0xbc69af3e	-0.014262972
113	0xbc06c905	-0.008226638
114	0xbc773c74	-0.015090097
115	0x3db4c433	0.088264845
116	0x3d8e8e74	0.069607645
117	0xbd19e7c9	-0.037574563
118	0xbcc05cc2	-0.02348173
119	0x3c703bc9	0.014662691
120	0xbd023cab	-0.03179614
121	0xbb0004c9	-0.0019534102
122	0xbd79f869	-0.061027918
123	0x3df5b8a1	0.11998106
124	0x3c4e2293	0.012581485
125	0x3d81ca5e	0.063374266
126	0xbc3b829e	-0.011444716
127	0xbc4c8764	-0.0124834515
128	0xbd8a3e76	-0.06750195
129	0xbd3847d9	-0.044990394
130	0x3cf5db1e	0.03001171
131	0xbdf826c0	-0.12116766
132	0xbd495bdd	-0.049159873
133	0xbe58356c	-0.21114129
134	0xbdb98ad8	-0.090596855
135	0xbd944033	-0.072388075
136	0x3d5b7b31	0.05358428
137	0xbc8cca2b	-0.017186245
138	0x3e0b513a	0.13605204
139	0xbdcb38dc	-0.099229544
140	0xbdb6e56c	-0.089304775
141	0xbd4fb5fc	-0.050710663
142	0xbdb24d0f	-0.08706104
143	0x3d482c8a	0.0488706
144	0xbd3db3cf	-0.046314057
145	0xbdc05599	-0.093913265
146	0x3dcf4a0a	0.10121544
147	0x3dac39e0	0.08409476
148	0x3d34f9be	0.044183485
149	0xbd1fc061	-0.039001826
150	0xbd6fa420	-0.05850613
151	0x3db7a223	0.08966472
152	0x3cbe4ef8	0.023231015
153	0xbe59dc40	-0.21275425
154	0xbdd7ee7f	-0.105435364
155	0x3d2a5431	0.041584197
156	0xbe2f10dd	-0.17096277
157	0xbcc7c57a	-0.024386156
158	0xbdadfbb9	-0.08495278
159	0xbe65a41b	-0.22425883
160	0x3d4ee7c2	0.05051399
161	0x3c9e2cfb	0.019308558
162	0xbd4addd4	-0.049527958
163	0x3d5c4cd1	0.053784195
164	0x3e2c17ca	0.1680595
165	0x3d985e33	0.07439842
166	0x3c39809c	0.011322167
167	0xbdac3694	-0.084088475
168	0x3dca6362	0.09882237
169	0xbd35c69e	-0.04437887
170	0xbd77da69	-0.060511027
171	0x3bbd0a91	0.005769082
172	0xbd86ce2b	-0.06582292
173	0x3cfea481	0.031084301
174	0x3e3ada9a	0.18247452
175	0x3e074b9b	0.13212435
176	0x3cab1762	0.020885173
177	0xbd6f77c9	-0.058463845
178	0xbb694cf4	-0.0035598846
179	0xbd79ce35	-0.06098767
180	0x3badcbf4	0.005303854
181	0x3ddb0094	0.1069347
182	0x3d593e8e	0.053038172
183	0xbda4713d	-0.08029411
184	0xbdc3d51d	-0.095621325
185	0x3e3a4901	0.18191911
186	0xbdcb5c81	-0.09929753
187	0x3d57f55c	0.052724227
188	0xbd1a007f	-0.03759813
189	0x3c567767	0.013089991
190	0xbd5e8b0d	-0.054331828
191	0xbb0c0ca7	-0.0021369846
192	0xbcc97566	-0.024592113
193	0x3c0c123a	0.008549267
194	0xbe42bbb8	-0.19016922
195	0x3d805fcf	0.06268274
196	0x39543353	0.00020237015
197	0x3e848c69	0.25888374
198	0x3cdfc8c0	0.027317405
199	0x3d6eaad9	0.0582684
200	0x3d8ed662	0.06974484
201	0xbd89d0c8	-0.06729275
202	0x3d557187	0.05211022
203	0xbddbb847	-0.107285075
204	0x3d76c5d0	0.060247242
205	0x3caade47	0.020857943
206	0xbded10f1	-0.11575497
207	0x3d00e5a2	0.031468995
208	0x3d941d47	0.07232147
209	0x3c4471d8	0.011990033
210	0x3d643b44	0.055720583
211	0xbc6b6b1f	-0.014368801
212	0xbd7ea304	-0.062167183
213	0xbd6265fd	-0.055273045
214	0xbde09315	-0.10965554
215	0x3c627488	0.0138217285
216	0xba31dab9	-0.00067846064
217	0xbe12c213	-0.14331846
218	0xbcb340fc	-0.021881573
219	0xbe09e496	-0.13466105
220	0xbdd8e380	-0.10590267
221	0x3c28aa91	0.010294572
222	0xbe09ef4a	-0.13470188
223	0x3b4f3a3e	0.0031620408
224	0x3e302ac2	0.17203811
225	0xbce7690a	-0.028248329
226	0xbc75a879	-0.01499378
227	0xbd4749db	-0.04865442
228	0xbd1700ac	-0.036865875
229	0x3e368e1e	0.17827651
230	0x3d1d10c1	0.038346056
231	0xbe1543dd	-0.14576669
232	0xbd1b907a	-0.03797958
233	0xbd9e24d5	-0.07721869
234	0xbd0e7625	-0.03478064
235	0xbcba1c1e	-0.022718485
236	0xbd0e6b3b	-0.03477023
237	0xbe520c98	-0.20512617
238	0x3e37dbaa	0.17954889
239	0x3dbee5fc	0.0932121
240	0xbe143e03	-0.1447678
241	0xbd27d8d2	-0.04097826
242	0xbdacbc01	-0.084342964
243	0x3dcb77a8	0.09934932
244	0xbe0be828	-0.1366278
245	0xbd4d09c0	-0.050058126
246	0x3d991361	0.07474399
247	0x3e0863b7	0.13319288
248	0x3c23410e	0.009964241
249	0x3d853146	0.06503539
250	0xbd01de72	-0.03170628
251	0xbe3fb4d7	-0.18721329
252	0xbd2731cd	-0.040818978
253	0xbe65b8b9	-0.22433747
254	0xbd377b36	-0.044795237
255	0xbcf21c70	-0.029554576

bias f4 [128]
0	0x3b94e1d8	0.0045435242
1	0xbda08c8c	-0.07839307
2	0xbe08e60f	-0.1336901
3	0xbde635bd	-0.112407185
4	0xba8da576	-0.0010806757
5	0x3c84718d	0.016167426
6	0xbd9ae15d	-0.07562516
7	0xbe701eb7	-0.23449217
8	0xbd8122a9	-0.06305439
9	0xbd48bf4d	-0.049010564
10	0xbd91a3a3	-0.07111289
11	0xbda049ca	-0.07826574
12	0xbd99b7ec	-0.075057834
13	0xbda37713	-0.07981696
14	0xbcc4a685	-0.024005184
15	0xbc966e1e	-0.018363055
16	0xbcea6cff	-0.028616427
17	0xbd9ca333	-0.07648315
18	0x3d5ef153	0.054429363
19	0xbc16f3f1	-0.009213434
20	0xbdeb99a1	-0.11503912
21	0xbd9eba23	-0.077503465
22	0xbde4511f	-0.11148285
23	0xbe052e94	-0.1300605
24	0xbe1b402a	-0.15161195
25	0xbd5c1cdf	-0.05373847
26	0x3cda8ee1	0.026679458
27	0xbd95d50a	-0.073160246
28	0xbe02d509	-0.12776579
29	0xbd5bded3	-0.0536793
30	0xbe03d586	-0.12874421
31	0xbdeab38e	-0.114600286
32	0xbd9f8607	-0.077892356
33	0xbe0b2520	-0.13588381
34	0xbcb6f40c	-0.022333167
35	0xbe01881f	-0.12649582
36	0xbd9784aa	-0.073983505
37	0xbcf3bb7f	-0.029752491
38	0xbd253a40	-0.040338755
39	0xbcc6f0cb	-0.02428474
40	0xbdb10d39	-0.086451
41	0xbe05875f	-0.13039921
42	0xbdf2aadc	-0.11848995
43	0xbde0e130	-0.10980451
44	0xbdac5bdd	-0.08415959
45	0xbe00194b	-0.12509649
46	0x3c6df81c	0.014524486
47	0xbe00668c	-0.12539119
48	0x3c56a406	0.01310063
49	0xbbb863a9	-0.005627115
50	0xbcfa008d	-0.03051784
51	0xbdc928d5	-0.09822241
52	0xbc8879ba	-0.016659606
53	0x3ce3a439	0.027788268
54	0xbe0f3d33	-0.1398819
55	0xbe1cc9a1	-0.1531129
56	0xbdb72a91	-0.08943666
57	0xbe1abbc2	-0.15110686
58	0xbd49c5b5	-0.049260814
59	0xbe08c5d6	-0.13356718
60	0xbdbb46b0	-0.09144342
61	0xbd6d9623	-0.05800451
62	0xbd1c4abd	-0.038157213
63	0xbdb0ddc3	-0.08636048
64	0x3c9d408d	0.01919582
65	0x3cbe8421	0.023256363
66	0xbd5a27e3	-0.053260695
67	0xbd1f4113	-0.03888042
68	0xbd71dd8b	-0.05904917
69	0xbe0e15bf	-0.13875483
70	0xbe111ed4	-0.14171916
71	0xbdd5e652	-0.10444321
72	0xbc79ec85	-0.015254145
73	0xbdb1f4aa	-0.08689244
74	0xbd939ac1	-0.07207251
75	0xbd135f73	-0.0359797
76	0xbd00c132	-0.031434245
77	0x3ca07e52	0.019591484
78	0x3cbaf31c	0.022821002
79	0xbd72f315	-0.059313852
80	0xbd0a54c6	-0.033772253
81	0xbc64638f	-0.013939752
82	0xbd943912	-0.07237448
83	0xbe1ce64f	-0.15322231
84	0xbd520382	-0.051272877
85	0xbcdfcd9a	-0.027319718
86	0xbdacdf65	-0.084410466
87	0xbd8c4d2c	-0.06850657
88	0xbde77022	-0.113006845
89	0xbc8b556d	-0.017008508
90	0xbccf059f	-0.025271235
91	0xbd0f9811	-0.03505713
92	0xbd866be7	-0.065635495
93	0xbdb70cbf	-0.08937978
94	0xbd10453c	-0.035222277
95	0xbdf1c975	-0.11806003
96	0xbd86890e	-0.0656911
97	0xbd1538ec	-0.036431238
98	0xbcf5a1e1	-0.029984416
99	0xbc5eb8fa	-0.013593907
100	0x3c6ca236	0.014442971
101	0xbc0956e8	-0.0083825365
102	0xbdc652b3	-0.096837424
103	0xbdaa297d	-0.083086945
104	0xbaeabb23	-0.0017908554
105	0xbe0d75df	-0.13814496
106	0x3b1f00ba	0.0024261908
107	0xbdb4ef60	-0.0883472
108	0xbd9e8e06	-0.077419326
109	0xbced6c20	-0.028982222
110	0xbdd76b33	-0.105184935
111	0xbc9babf8	-0.0190029
112	0xbd8f35ea	-0.06992705
113	0xbdf33565	-0.118754186
114	0xbd9ba82c	-0.076004356
115	0xbd91d8c2	-0.071214214
116	0x3ca1d173	0.019753193
117	0xbd99e31a	-0.07514019
118	0xbda68f9b	-0.08132859
119	0xbc6c8b64	-0.01443753
120	0xbdb2b9af	-0.087268226
121	0xbdb0adc6	-0.08626895
122	0xbd74beda	-0.059752323
123	0xbd88003c	-0.0664067
124	0xbe179a6a	-0.14804998
125	0xbdce853b	-0.100840054
126	0xbd877ab6	-0.06615202
127	0xbdba495f	-0.09096026

weight f4 [12, 128]
0	0x3b43fdbc	0.0029905876
1	0x3d5d9886	0.054100536
2	0xbd7f113f	-0.062272307
3	0x3cfa81c3	0.030579453
4	0xbd0cea19	-0.03440294
5	0x3c22fb6d	0.00994764
6	0x3d25a29b	0.040438276
7	0xbbf25060	-0.0073948354
8	0x3d295347	0.041339185
9	0x3c65fd8c	0.014037501
10	0xbc61f535	-0.013791372
11	0xbbfdd496	-0.0077462895
12	0xbc1787e6	-0.009248709
13	0xbda3593c	-0.079760045
14	0x3cdc1b1b	0.026868394
15	0x3d27fa15	0.04100998
16	0xbd74ff0c	-0.059813544
17	0xbd69e4af	-0.057102855
18	0xbcda0194	-0.02661208
19	0x3ce8b1b0	0.02840504
20	0x3cc4372b	0.023952087
21	0x3c69e2be	0.014275251
22	0x3cc3c26b	0.023896417
23	0xbcc0ec49	-0.02355017
24	0xbd2f215f	-0.042756435
25	0xbd3d3883	-0.046196472
26	0xbdb2f09f	-0.08737301
27	0x392a9901	0.00016269462
28	0xbd6dd9db	-0.05806909
29	0x3ddfa12a	0.109194115
30	0xbd01f4b3	-0.031727504
31	0xbb9c905a	-0.0047779502
32	0xbcd11642	-0.025523309
33	0xbc78418f	-0.015152349
34	0xbbe8d675	-0.0071056434
35	0xbd7f08e7	-0.06226435
36	0x3be2f626	0.006926316
37	0x3ca769b2	0.020436142
38	0xbada2a41	-0.0016644673
39	0x3d98adcf	0.07455026
40	0x3bf70ba4	0.0075392295
41	0xbc9e5846	-0.019329201
42	0xbd582162	-0.05276621
43	0xbd2d997b	-0.0423827
44	0x3c007366	0.007840013
45	0xbcefaf8f	-0.029258518
46	0x3d320e11	0.043470446
47	0xbd574785	-0.05255844
48	0xbcb433b1	-0.021997305
49	0xbc19708e	-0.009365214
50	0xbd33da1a	-0.04390917
51	0xbca25d4c	-0.019819878
52	0x3b697294	0.0035621272
53	0xbd2392cf	-0.03993493
54	0xbc89247a	-0.016741026
55	0x3d6d69e7	0.057962324
56	0x3c92642f	0.017870037
57	0xbbaa9150	-0.005205311
58	0x3d068a92	0.032846995
59	0xbd5426cb	-0.05179481
60	0x3daaf05b	0.083466254
61	0x3c64592d	0.013937277
62	0xbd525a0f	-0.051355418
63	0x3d2bb7bf	0.04192328
64	0x3d471e82	0.04861308
65	0x3c9a2789	0.01881768
66	0xbcd0f524	-0.025507517
67	0xbd40080f	-0.046882685
68	0x3d1b9756	0.037986122
69	0x3b798120	0.003807135
70	0xbceca684	-0.028887995
71	0x3cdd42a9	0.027009325
72	0x3c8fa6af	0.017535536
73	0x3d96d7b3	0.0736536
74	0x3abf3ffa	0.001459121
75	0x3d923085	0.071381606
76	0x3c2cffcf	0.010559036
77	0xbd3f7ed3	-0.04675181
78	0xbc881657	-0.016612215
79	0x3d0a618a	0.033784427
80	0x3d591876	0.053001843
81	0x3a4a1201	0.0007708371
82	0xbc9ce29d	-0.019151026
83	0x3be72944	0.00705448
84	0xbd8179c0	-0.0632205
85	0x3ce21b43	0.02760089
86	0xbc91e314	-0.017808475
87	0x3cae2925	0.021259854
88	0x3d37d874	0.04488416
89	0x3c7b2dc4	0.015330736
90	0x3cbf0c0d	0.023321176
91	0x3aa694c9	0.0012709136
92	0xbcfe6b00	-0.031056881
93	0x3c8ba89a	0.017048169
94	0xbc59fed5	-0.013305386
95	0xbc0f49e1	-0.008745641
96	0xbd0d694f	-0.03452426
97	0xbc8798e7	-0.016552402
98	0x3c1aca34	0.009447623
99	0xbd447524	-0.047963277
100	0xbd2c8636	-0.04212018
101	0x3d04cbb6	0.032420836
102	0x3c728299	0.014801645
103	0xbd8ba59d	-0.068186976
104	0x3d37c9c1	0.044870142
105	0xbd9c7bef	-0.07640826
106	0xbbcea1c6	-0.006305906
107	0xbb6f47e2	-0.0036511351
108	0x3db98e98	0.09060401
109	0x3d45ed52	0.04832203
110	0xbcaca5ae	-0.021075096
111	0x3ba0ef52	0.0049113417
112	0xbbc27ef0	-0.0059355423
113	0xbda2426e	-0.07922827
114	0xbb561ce4	-0.0032671029
115	0xbda03112	-0.078218594
116	0xbc4a32c5	-0.012341206
117	0xbd8eb5df	-0.06968283
118	0x3b78ca37	0.0037962326
119	0xbce22770	-0.027606696
120	0x3d08117b	0.033219796
121	0xba974726	-0.001154159
122	0xbcd07370	-0.02544567
123	0x3cbee0f3	0.023300624
124	0xbcdbaba5	-0.026815245
125	0xbd2d6d32	-0.042340465
126	0x3bbfcdb5	0.0058533796
127	0x3ca90393	0.020631587
128	0x3d92eac5	0.07173685
129	0x3c1446d3	0.009050089
130	0x3c20f5fb	0.009824271
131	0xbb44f808	-0.0030055065
132	0xbd91d85a	-0.07121344
133	0xba51544e	-0.00079852797
134	0xbd01e18c	-0.03170924
135	0xbd60b5d6	-0.054860912
136	0x3dc4b4e0	0.09604812
137	0x3c95aea5	0.018271754
138	0x3b734817	0.0037121826
139	0xbd74f52a	-0.05980412
140	0x3b0cf97c	0.002151101
141	0xbd1b369a	-0.03789387
142	0x3d4944ea	0.049137987
143	0xbd596669	-0.05307618
144	0x3d222a08	0.039590865
145	0x3c0bdd6f	0.008536681
146	0xbd106d5c	-0.035260543
147	0x3d9be042	0.07611133
148	0x3d8f3e40	0.06994295
149	0x3d6d079f	0.057868596
150	0xbd7a6b8b	-0.061137717
151	0x3d3eb206	0.046556495
152	0xbc33f6d3	-0.01098414
153	0x3cd84f09	0.026404874
154	0xbe2c144c	-0.16804618
155	0xbbac44d1	-0.005257227
156	0xbccce3d2	-0.025010977
157	0x3cd2144b	0.025644442
158	0xb93cec34	-0.0001801707
159	0x3c60b47e	0.013714908
160	0xbc822d7c	-0.01589083
161	0xbd24dbcc	-0.040248677
162	0x3c17f14c	0.009273838
163	0x3d991b1a	0.07475872
164	0x3d8078da	0.062730506
165	0xbd84ecac	-0.06490454
166	0x39f22234	0.0004618332
167	0xbd01f762	-0.031730063
168	0x3d9cfb64	0.076651365
169	0xbd81ad4c	-0.06331882
170	0x3bcfa16a	0.0063363807
171	0x3e0dbafb	0.13840859
172	0xbd83be86	-0.06432824
173	0x3d7da426	0.061924122
174	0x3bd01004	0.0063495655
175	0x3d8e15bc	0.06937739
176	0xbd570869	-0.052498255
177	0x3ca30c4b	0.019903323
178	0x3d39d83c	0.045372233
179	0x3c8ec080	0.017425776
180	0x3d209902	0.03920842
181	0x3b288607	0.0025714652
182	0xbcc5b6d0	-0.024135023
183	0xbda0737f	-0.07834529
184	0x3a9dff14	0.0012054169
185	0x3d3f2162	0.046662696
186	0xbc32a9bc	-0.010904726
187	0x3d6deaa0	0.058085084
188	0xbd1c80c9	-0.038208757
189	0x3da4d9aa	0.080493286
190	0xbc20e60e	-0.009820474
191	0x3ad2c349	0.0016079928
192	0xbd3804e9	-0.044926558
193	0x3c9980cd	0.018738175
194	0xbd11dc6b	-0.035610598
195	0xbcf8cbaa	-0.030370552
196	0x3d4d1007	0.050064113
197	0xbcbce516	-0.023058455
198	0x3d45b01d	0.048263658
199	0x3d5b5a3d	0.053552855
200	0xbd076f52	-0.033065148
201	0xbd3caae7	-0.046061423
202	0xbcea7b62	-0.028623287
203	0x3d13db3e	0.036097758
204	0x3d504fbe	0.050857298
205	0x3d00806f	0.031372484
206	0xbbf23c00	-0.0073924065
207	0xbd344d74	-0.044019178
208	0x3d2408d1	0.04004747
209	0x3d9da2db	0.07697078
210	0x3ccdd6d4	0.025126852
211	0xbcd4d75c	-0.025981598
212	0x3c0beef8	0.008540861
213	0xbd0a8a14	-0.033823088
214	0xbc988e6b	-0.018622598
215	0x3e0b5a5e	0.13608691
216	0xbd256c27	-0.040386345
217	0xbd42644f	-0.047458943
218	0xb9e80924	-0.000442573
219	0x3cc84896	0.024448674
220	0x3d4764d3	0.048680138
221	0x3d3dbe4e	0.046324067
222	0x3d58dd6f	0.05294555
223	0x3a6f3745	0.0009125362
224	0xbd9b2389	-0.07575137
225	0xbd654c35	-0.05598088
226	0xbb939e3b	-0.0045049465
227	0xbd467a7c	-0.048456654
228	0x3c2f4668	0.0106979385
229	0x3d66d04c	0.05635099
230	0xbd97e62d	-0.074169494
231	0xbd2252db	-0.0396298
232	0x3d16f27e	0.036852352
233	0x3df542ba	0.11975618
234	0xbca9e77c	-0.020740263
235	0xbda0f509	-0.07859237
236	0x3d3b99db	0.045801025
237	0xbc077dc7	-0.008269734
238	0xbc245b75	-0.010031571
239	0xbc95e67d	-0.018298382
240	0xbd79ccef	-0.060986456
241	0xbd7ef16b	-0.062241953
242	0xbe044300	-0.12916183
243	0x3c95a234	0.018265821
244	0xbb65cc72	-0.0035064486
245	0x3e0096ca	0.12557521
246	0xbd6a21e8	-0.05716124
247	0x3b38f7a4	0.0028223777
248	0x3ccb3ee9	0.024810271
249	0xbc0cdea4	-0.008598004
250	0x3e07c53d	0.13258834
251	0xbd9237ef	-0.07139575
252	0x3c38502d	0.011249584
253	0xbc095b3e	-0.00838357
254	0x3ccb2f82	0.024802927
255	0x3d27e545	0.040990133

bias f4 [12]
0	0x3c68bd84	0.01420534
1	0xbc8a2909	-0.01686527
2	0x3d50a8ae	0.050942115
3	0xbd574432	-0.05255527
4	0xbde1344d	-0.10996304
5	0xbc38e4d8	-0.011285029
6	0x3dc05acd	0.09392319
7	0x3c00d254	0.007862646
8	0x3d6422ff	0.055697437
9	0x3d646ea3	0.055769574
10	0x3d6d7773	0.057975244
11	0x3d4d8c42	0.05018259
